task_2_segmentation/Model Weights/hypothesis_1_full_saved_mode.pth (torch, 477724 bytes, 25 tensors)

enc_conv1.0.weight f4 [16, 3, 3, 3]
0	0xbe37619f	-0.17908333
1	0x3e0c47b0	0.13699222
2	0x3de9e3af	0.1142038
3	0x3d4679de	0.048456065
4	0x3d16d7a2	0.036826737
5	0xbb31073b	-0.0027012366
6	0x3d102187	0.035188224
7	0xbe0247e3	-0.12722735
8	0xbe1f89ce	-0.15579912
9	0xbafcf9e4	-0.0019300547
10	0x3d66801b	0.056274515
11	0x3e1d89b6	0.15384564
12	0x3db79035	0.08963052
13	0xbd2284ae	-0.039677314
14	0x3dc839ad	0.09776626
15	0xbe0f4c49	-0.13993944
16	0x3df9f287	0.122044615
17	0x3db34b3a	0.08754583
18	0x3db9f68f	0.090802304
19	0x3d2657c7	0.040611055
20	0x3d865303	0.06558802
21	0x3e37a768	0.17934954
22	0xbc850135	-0.016235927
23	0xbd98ff51	-0.07470573
24	0x3e3987b8	0.18118179
25	0x3dc87d90	0.09789574
26	0xbe1cda2a	-0.15317598
27	0x3d98f006	0.07467656
28	0xbe1af40a	-0.15132156
29	0x3cc83054	0.024437107
30	0xbc341db9	-0.010993415
31	0x3d1283e7	0.035770323
32	0x3e086e2c	0.13323277
33	0x3d13b8ca	0.0360649
34	0x3c8448cb	0.016147992
35	0xbd6a666f	-0.057226595
36	0xbd632dd8	-0.055463642
37	0xbd453f75	-0.04815622
38	0xbe0583be	-0.13038537
39	0xbcbae9f7	-0.022816641
40	0xbd32ca7a	-0.043650128
41	0x3cc05359	0.023477243
42	0x3d344e44	0.044019952
43	0x3e27dcf0	0.16392875
44	0xbc98f041	-0.01866925
45	0x3a0356f5	0.0005010211
46	0xbe2fe45b	-0.17176954
47	0x3de4684a	0.11152704
48	0xbb869c9d	-0.004108025
49	0x3d3b69f2	0.045755334
50	0xbd679b29	-0.056544457
51	0x3e01c0a7	0.12671147
52	0x3d0e1f32	0.03469772
53	0xbb185448	-0.0023243595
54	0x3d42cd39	0.047558997
55	0x3c74e762	0.014947744
56	0x3db63b5a	0.08898039
57	0xbd9f8018	-0.07788104
58	0x3ddca35d	0.107733466
59	0x3df3e0eb	0.11908134
60	0xbdc6d611	-0.09708799
61	0x3d037d43	0.03210188
62	0x3e05c7ad	0.13064452
63	0xbd9e6b3b	-0.07735296
64	0x3e15abf5	0.14616378
65	0x3d2df6ff	0.042471882
66	0xbe2c0bbb	-0.1680135
67	0x3e3a768e	0.18209288
68	0x3e0af8f7	0.13571535
69	0x3cd474a2	0.025934521
70	0xbe3f2b3c	-0.18668836
71	0xbe031199	-0.12799682
72	0x3cbb29c1	0.022847058
73	0x3e2dcaeb	0.16971938
74	0x3dce5446	0.10074668
75	0x3e2821cd	0.16419144
76	0x3e01b4f5	0.12666686
77	0x3da649c7	0.08119541
78	0x3df8dcac	0.12151465
79	0xbe271f82	-0.16320613
80	0x3d65b5e2	0.05608166
81	0xbd1325d6	-0.035924755
82	0xbe28591f	-0.16440247
83	0xbc12a61f	-0.008950739
84	0x3d767230	0.06016749
85	0xbe152369	-0.14564289
86	0xbe2188b8	-0.1577481
87	0x3e3851a7	0.17999898
88	0x3d00e50c	0.031468436
89	0xbe22d7c4	-0.1590262
90	0xbdd307a7	-0.10304194
91	0xbe0598cb	-0.13046567
92	0xbd965371	-0.07340134
93	0xbe3dc2de	-0.18531367
94	0x3d9b78d9	0.07591409
95	0x3dd765aa	0.10517438
96	0x3da36ac4	0.07979348
97	0xbcdfba6d	-0.027310574
98	0x3e1a83fd	0.15089412
99	0xbdfbe998	-0.12300414
100	0xbdcabb23	-0.09898975
101	0x3e2ec3b7	0.17066847
102	0xbcb8a934	-0.02254162
103	0x3dea68d9	0.11445779
104	0x3dd719f6	0.105029985
105	0x3dc4d5d4	0.09611097
106	0xbc850a18	-0.016240165
107	0x3dc620a4	0.096741945
108	0x3dc28d8d	0.09499655
109	0xbd8b1f16	-0.067930385
110	0xbe240ad6	-0.16019759
111	0x3e1a2507	0.15053187
112	0xbe1a7162	-0.15082315
113	0xbcb1dce9	-0.021711783
114	0xbda5b40d	-0.080909826
115	0xbb5233e2	-0.0032074382
116	0xb99cb9a4	-0.00029892952
117	0x3e14fae5	0.14548834
118	0x3df81a94	0.121144444
119	0xbe1ed8e1	-0.1551242
120	0x3d7e18dc	0.062035426
121	0xbdec2c89	-0.11531932
122	0xbe261753	-0.16219835
123	0x3e49ca1c	0.19706005
124	0x3e4dd421	0.20100452
125	0xbe6b4406	-0.22975168
126	0xbdbefa0c	-0.093250364
127	0x3de379b0	0.111071944
128	0xbe4e6307	-0.20154963
129	0x3dd18c32	0.10231818
130	0xbc15a830	-0.009134337
131	0xbe647c50	-0.22313046
132	0xbd864270	-0.06555641
133	0xbd85d3be	-0.06534527
134	0xbda47714	-0.08030525
135	0xbd091a4e	-0.03347235
136	0x3e2c8fe3	0.16851763
137	0x3d5dce6d	0.05415194
138	0x3de2f670	0.110821605
139	0xbd58206b	-0.05276529
140	0xbe180597	-0.14845882
141	0x3e0f7e9a	0.14013138
142	0xbadc255f	-0.0016795805
143	0xbdd56a78	-0.10420698
144	0x3e01eeb1	0.1268871
145	0x3d76e7e5	0.060279746
146	0x3e44005c	0.19140762
147	0xbd80c4fc	-0.06287572
148	0xbd817c89	-0.06322581
149	0xbdae5854	-0.08512941
150	0x3e2b96c0	0.16756725
151	0xbe03d34b	-0.1287357
152	0xbdee30d6	-0.116304085
153	0x3e1ffaf8	0.1562308
154	0xbccc26c4	-0.024920829
155	0x3d16a4df	0.036778327
156	0x3cc8f505	0.024530897
157	0xbe25c646	-0.16188917
158	0xbe2667f8	-0.16250598
159	0xbdca810b	-0.09887894
160	0x3dd8a23f	0.10577821
161	0xbd9af3b4	-0.07566014
162	0x3c5dfbdb	0.013548817
163	0xbdf0216f	-0.11725127
164	0xbe446f94	-0.19183189
165	0xbc9c8dd0	-0.01911059
166	0x3db10fae	0.08645569
167	0xbdb23d1c	-0.08703062
168	0xbdca2f54	-0.098723084
169	0x3e5dde77	0.21666895
170	0xbd7b2723	-0.06131662
171	0xbdbf170c	-0.09330568
172	0xbd9a647b	-0.075386964
173	0xbe27d3c7	-0.1638938
174	0x3dc4075c	0.09571716
175	0xbbe285cd	-0.006912923
176	0x3dd077f2	0.10179128
177	0xbc8aa52c	-0.016924463
178	0x3da57a5e	0.0807998
179	0x3e41052c	0.18849629
180	0xbcf34679	-0.02969669
181	0xbe821b55	-0.25411478
182	0xbe8004ac	-0.25003564
183	0xbcfefa61	-0.03112525
184	0xbe214a8b	-0.15751092
185	0x3d4c7e03	0.04992486
186	0x3de2920a	0.11063011
187	0xbd8b450d	-0.0680028
188	0x3ded7f69	0.11596567
189	0x3d0065c5	0.031347055
190	0x3d8d4cd3	0.06899419
191	0x3e02e965	0.12784345
192	0xbda61f92	-0.0811149
193	0xbc12630e	-0.008934749
194	0x3d86821e	0.06567787
195	0xbdf49bb4	-0.119437605
196	0xbda12e99	-0.07870216
197	0xbdbc3f57	-0.091917686
198	0x3ce3d4fc	0.02781152
199	0xbd90e7d4	-0.07075468
200	0x3cca1e10	0.024672538
201	0x3d88ce46	0.066799685
202	0xbdaf25e5	-0.0855215
203	0x3d47a091	0.048737112
204	0x3e0a7992	0.13522938
205	0xbd48b5f2	-0.04900164
206	0x3e3c3ab1	0.18381764
207	0x3e22a72f	0.15884088
208	0x3bf9a622	0.0076186815
209	0x3dc94381	0.098273285
210	0x3d55b060	0.052170157
211	0xbdb2ce45	-0.08730749
212	0xbd283af7	-0.04107186
213	0x3c146dd2	0.009059386
214	0x3ca53ed9	0.02017157
215	0x3ceb01aa	0.028687317
216	0xbc39a395	-0.011330505
217	0xbca4ee7a	-0.020133246
218	0xbe26949c	-0.16267627
219	0x3e1dba95	0.15403207
220	0xbe2e7579	-0.17037
221	0xbdd4f008	-0.10397345
222	0x3d7d34c2	0.061817892
223	0xbe34905c	-0.17633194
224	0x3e4cca69	0.19999088
225	0xbdb7a769	-0.08967478
226	0xbdbaf508	-0.09128767
227	0x3b436153	0.0029812648
228	0xbe0d5762	-0.13802865
229	0xbd162e53	-0.036665272
230	0xbd728a52	-0.059213944
231	0xbdcb0639	-0.09913296
232	0x3d76fb4b	0.060298245
233	0x3d6758dd	0.05648123
234	0xbe225d2c	-0.15855855
235	0xbe47a649	-0.19497027
236	0x3da0cc91	0.07851518
237	0xbdb5e44f	-0.08881437
238	0xbdc8bfc0	-0.098021984
239	0x3e3fd412	0.18733242
240	0x3e04b588	0.12959874
241	0x3dd2f80a	0.10301216
242	0x3e10a2df	0.1412463
243	0xbccfefa3	-0.025382822
244	0xbe0b059e	-0.13576362
245	0x3e1397a1	0.1441331
246	0xbcfbf4c4	-0.030756362
247	0xbd89e0cd	-0.067323305
248	0xbbf35518	-0.0074259154
249	0x3dae149a	0.08500023
250	0xbca90cba	-0.020635951
251	0xbd8d1c97	-0.06890219
252	0xbe095990	-0.13413072
253	0xbd1eb9eb	-0.038751524
254	0xbddbc0f9	-0.10730166
255	0xbe04dec9	-0.12975611

enc_conv1.0.bias f4 [16]
0	0xbe00b1eb	-0.1256787
1	0x3d657e93	0.056028914
2	0xbd60f382	-0.054919727
3	0xbd68b5d5	-0.056814034
4	0xbd120dd2	-0.03565771
5	0x3d659fc5	0.05606057
6	0xbcfd4f41	-0.03092158
7	0xbd1f6de2	-0.03892315
8	0xbcf1031f	-0.029420434
9	0x3dfb401d	0.12268088
10	0x3d86289a	0.06550713
11	0x3e50ddae	0.20397064
12	0xbde5aacb	-0.11214217
13	0xbd520b1f	-0.051280137
14	0xbdb2d39f	-0.0873177
15	0xbd9b2eca	-0.07577284

enc_conv1.2.weight f4 [16, 16, 3, 3]
0	0xbcd922c5	-0.026505837
1	0xbd7bc02c	-0.061462566
2	0xbd2de729	-0.04245678
3	0xbd5cf143	-0.053941023
4	0xbd9af7af	-0.07566773
5	0xbd25b60a	-0.04045681
6	0xbd3e145b	-0.04640613
7	0xbd3317ac	-0.043723747
8	0xbd7b43c9	-0.06134394
9	0xbc725833	-0.014791536
10	0xbd0c1c8f	-0.034206923
11	0xbb4e6717	-0.0031494552
12	0xba8ea0f7	-0.0010881711
13	0xbd3d691d	-0.046242822
14	0xbcafc445	-0.021455893
15	0xba30cd7e	-0.0006744488
16	0x3daacb3e	0.083395466
17	0x3d12b932	0.035821147
18	0xbd1065a9	-0.0352532
19	0xbda7cedc	-0.08193752
20	0x3d0d51eb	0.03450195
21	0x3d1c2185	0.038117904
22	0xbd165209	-0.03669933
23	0x3d42e289	0.047579322
24	0x3d0aa260	0.03384626
25	0x3cd4d2a1	0.025979342
26	0x3d741f68	0.059600264
27	0x3c240459	0.010010802
28	0x3d9c687a	0.07637115
29	0xbd6ff8c0	-0.058586836
30	0xbd78fa94	-0.060785845
31	0xbda63e14	-0.08117309
32	0xbd5dd41d	-0.054157365
33	0x3d6eb83f	0.05828118
34	0xbd43ac63	-0.047771823
35	0x3d821af1	0.06352795
36	0x3d298a49	0.041391645
37	0x3c49fdea	0.012328604
38	0xbd798610	-0.060918868
39	0xbd2d7d8f	-0.04235607
40	0x3c1c4f08	0.009540327
41	0xbdd3fcc4	-0.103509456
42	0x3d122d11	0.03568751
43	0x3cfba0ba	0.030716289
44	0x3cd0268b	0.025409004
45	0x3c97dc60	0.0185377
46	0xbd22fd23	-0.03979219
47	0x3d85a065	0.065247335
48	0x3b1a2922	0.0023523052
49	0xbc4d7fac	-0.012542646
50	0xbcbdde1e	-0.023177203
51	0xbd5432e1	-0.051806334
52	0xbd7c850b	-0.061650317
53	0x3d9f8516	0.07789056
54	0x3d395501	0.04524708
55	0xbba786ce	-0.0051125055
56	0x3d0c7ce1	0.03429878
57	0x3c225641	0.00990826
58	0x3b8f4db4	0.0043732766
59	0xbd3c685a	-0.045997955
60	0x3d773f68	0.060363203
61	0xbdb414b2	-0.0879301
62	0x3bb5c6f3	0.0055473982
63	0xbca9c9dd	-0.020726139
64	0x3d07e7a4	0.033179894
65	0xbd98da99	-0.07463569
66	0xbd6cbca7	-0.0577971
67	0x3c93cb21	0.018041195
68	0xbd0f3201	-0.034959797
69	0xba2877e4	-0.00064265565
70	0xbd95cf8a	-0.073149756
71	0xbd34fd07	-0.04418662
72	0x3d106fb7	0.03526279
73	0x3b7de8dd	0.0038743534
74	0xbc5fccaf	-0.01365964
75	0x3cdffcb5	0.02734218
76	0x3d6c74de	0.05772864
77	0xbb8bb86b	-0.0042639277
78	0x3cd2f912	0.025753532
79	0xbc18531e	-0.00929716
80	0x3d0b3548	0.03398636
81	0x3cb8048b	0.022463104
82	0xbbca2c52	-0.006169834
83	0x3d49720a	0.04918102
84	0xbbc76c2e	-0.006085894
85	0x3da81036	0.08206217
86	0x3d83d61e	0.06437324
87	0x3dc955e2	0.09830834
88	0x3d3d9de1	0.046293143
89	0x3cad23d4	0.021135248
90	0xbd54b923	-0.051934373
91	0xbcfc32cf	-0.030785946
92	0x3ca5d796	0.020244401
93	0x3d6b2673	0.057409715
94	0xbd1633bb	-0.036670428
95	0x3d2ad05a	0.041702606
96	0xbd0055e9	-0.03133193
97	0xbd7652ac	-0.060137436
98	0xbd3ef048	-0.04661587
99	0xbd6d7118	-0.057969183
100	0x3a83a3b5	0.0010043295
101	0x3cdc619f	0.026902018
102	0x3cd8b245	0.026452193
103	0xbc025c03	-0.007956508
104	0x3d8917b7	0.06693976
105	0x3cfb0e11	0.030646356
106	0x3d5409ed	0.05176728
107	0x3d6750e0	0.056473613
108	0xbdb26a93	-0.08711734
109	0xbd084272	-0.033266492
110	0xbda14394	-0.07874218
111	0xbd7742b3	-0.060366344
112	0xbc5cd39a	-0.013478184
113	0xbd284d59	-0.04108939
114	0xbd6d8101	-0.057984356
115	0xbc7a88a5	-0.015291368
116	0xbcb18313	-0.021668946
117	0x3b0791c0	0.002068624
118	0x3da219e9	0.07915098
119	0x3d6235b9	0.055227015
120	0x3d8c772d	0.068586685
121	0x3d337652	0.04381401
122	0xbd466281	-0.048433784
123	0x3c874e78	0.016516909
124	0x3d3f356e	0.046681814
125	0xbd390426	-0.045169972
126	0x3ca171c7	0.019707574
127	0x3cc36961	0.02385396
128	0x3d472b40	0.04862523
129	0x3caf27d0	0.021381289
130	0xbd82174d	-0.063521005
131	0x3d49a85a	0.04923282
132	0xbd80e0b7	-0.06292861
133	0x3d48d9fa	0.049036004
134	0xbc2329c9	-0.009958693
135	0xbb062302	-0.0020467644
136	0x3d26970c	0.040671393
137	0xbd1e9ab7	-0.038721766
138	0x3d8ca9c6	0.06868319
139	0x3c81289a	0.01576643
140	0x3dbd5f84	0.09246734
141	0x3d991373	0.07474413
142	0xbc9737ed	-0.018459285
143	0x3d383bc6	0.04497888
144	0x3d86a00c	0.06573495
145	0x3c846a8a	0.016164083
146	0x3da24cd9	0.07924814
147	0xbd4650fe	-0.048417084
148	0xbd00a3b0	-0.031406105
149	0xbd608f85	-0.05482437
150	0xbd3461ac	-0.04403846
151	0xbb7bbd0e	-0.0038412246
152	0xbd314f7e	-0.0432887
153	0x3db8f909	0.09031875
154	0xbd0a763d	-0.033804167
155	0x3cd9de79	0.026595341
156	0x3d7fc86f	0.062447008
157	0x3d0d8868	0.034553915
158	0x3da1a151	0.07892097
159	0xbd1342d0	-0.03595239
160	0xbd6d70b8	-0.057968825
161	0x3d39a593	0.04532392
162	0xbcc5d934	-0.024151422
163	0x3d033369	0.03203145
164	0x3afe071b	0.001938078
165	0x3cb1b513	0.021692788
166	0x3cc87b9a	0.024473
167	0x3d1b8b0f	0.037974413
168	0xbd62a4a5	-0.0553328
169	0x3d2624d7	0.040562477
170	0xbd934154	-0.07190195
171	0xbc949523	-0.01813752
172	0xbd63a5b3	-0.055577945
173	0x3b7f9987	0.0039001422
174	0x3a6946cc	0.0008898794
175	0x3d9c299e	0.07625125
176	0xbd2bfe56	-0.0419906
177	0xbceeb639	-0.029139625
178	0x3d835735	0.06413118
179	0xbb476d0b	-0.0030429985
180	0x3d86e7b2	0.06587161
181	0xbc91933e	-0.017770406
182	0x3ddb84a7	0.10718661
183	0x3ce8e059	0.02842729
184	0x3da179ac	0.07884535
185	0xbca4892b	-0.020084938
186	0x3dd76044	0.10516408
187	0x3dd5cdf6	0.104396746
188	0x3d5da64e	0.05411368
189	0xbbbf860a	-0.005844836
190	0x3d9d7495	0.07688252
191	0x3db789b5	0.089618124
192	0xbd2764d0	-0.040867627
193	0xbcf268bd	-0.029590959
194	0x3c88981c	0.016674094
195	0xbcb26271	-0.021775456
196	0x3d535032	0.051590152
197	0x3ce07e06	0.027403843
198	0x3d3aa856	0.045570694
199	0xbd03c709	-0.032172237
200	0xbd707d87	-0.058713462
201	0x3db8e15a	0.090273574
202	0x3da75e04	0.08172229
203	0x3d529827	0.051414635
204	0x3d254e15	0.040357668
205	0xbc019cf2	-0.007910954
206	0x3d65eda5	0.05613484
207	0xbd0f874e	-0.035041146
208	0xbcf7892a	-0.030216772
209	0x3c94a93a	0.0181471
210	0x3d9ee186	0.07757859
211	0xbd9d4f3d	-0.07681129
212	0x3d9549cd	0.07289467
213	0x3d35d3e3	0.044391524
214	0x3d7c2daf	0.061567005
215	0x3d4d8de4	0.050184146
216	0xbcc82eaa	-0.024436314
217	0x3cf43fa5	0.029815504
218	0xbd9b8861	-0.075943716
219	0x3cf460a3	0.029831236
220	0xbd3262d5	-0.043551285
221	0x3c665797	0.014058969
222	0xbc8c28a5	-0.017109225
223	0x3c7df3c9	0.015500017
224	0x3d7dfb87	0.062007453
225	0x3d623e2d	0.055235077
226	0x3bf370c6	0.007429215
227	0x3bff0e5a	0.0077836933
228	0x3d98002e	0.07421909
229	0xbd7fbb8b	-0.062434714
230	0x3d9daa34	0.07698479
231	0xbcfed36f	-0.031106679
232	0x3d9a304b	0.075287424
233	0xbd70e325	-0.058810372
234	0xbb2b83da	-0.002617112
235	0xbcb9b986	-0.022671472
236	0x3cea0db3	0.028570985
237	0x3d9e0ef5	0.077176966
238	0xbd8fcc24	-0.070213586
239	0x3d82b481	0.06382085
240	0xbd542306	-0.051791213
241	0xbb6ef366	-0.0036460995
242	0x3b8da9d7	0.004323225
243	0x3cbe952c	0.02326449
244	0x3dbb0a1d	0.09132788
245	0x3cc7598e	0.024334695
246	0x3c5df630	0.013547465
247	0xbd56f412	-0.052478857
248	0x3d33be30	0.04388255
249	0x3d196165	0.0374464
250	0x3d5cb098	0.05387935
251	0xbbccb9d8	-0.0062477402
252	0x3caab81a	0.02083974
253	0x3c59a763	0.013284537
254	0x3d5647e6	0.05231466
255	0xbd26d068	-0.040726095

enc_conv1.2.bias f4 [16]
0	0xbd0d0ffb	-0.03443907
1	0x3d951b17	0.072805576
2	0x3d47dd9e	0.048795335
3	0x3d3976ec	0.04527943
4	0xbb22c5e1	-0.0024837183
5	0xbd2ba42a	-0.041904606
6	0x3d095429	0.033527527
7	0xbd761d2f	-0.060086425
8	0x3d8c9f2e	0.068662986
9	0xbcb77351	-0.022393854
10	0x3dba5417	0.0909807
11	0xbc309554	-0.01077779
12	0x3d9d8f54	0.07693353
13	0xbc8ad87e	-0.016948935
14	0x3bb0feaa	0.005401452
15	0xbd8ac977	-0.067767076

enc_conv2.0.weight f4 [32, 16, 3, 3]
0	0x3d43205e	0.04763829
1	0x3d9b8b4d	0.07594929
2	0xbb905f10	-0.0044058636
3	0xbd757d8b	-0.05993418
4	0x3c717828	0.01473812
5	0xbd304f80	-0.043044567
6	0x3d88e3cf	0.06684076
7	0x3cdb4f4c	0.02677121
8	0x3c167cf8	0.009185068
9	0x3d794b82	0.060863025
10	0xbd65e2e3	-0.05612458
11	0xbc9247a0	-0.01785642
12	0xbc8cccf0	-0.017187566
13	0xbc996c8c	-0.018728517
14	0x3d37b832	0.044853397
15	0xbda5b7de	-0.080917105
16	0xbd0f48fe	-0.03498172
17	0xbbea7c30	-0.0071559176
18	0x3d8126f5	0.063062586
19	0xbd91492b	-0.07094034
20	0xba448800	-0.0007497072
21	0xbd8441ec	-0.06457886
22	0xbcd36d00	-0.025808811
23	0xbd2d8726	-0.042365216
24	0x3d163c2a	0.03667847
25	0xbd8b5d52	-0.06804909
26	0x3cbcb8bc	0.023037307
27	0xbd3803fe	-0.044925682
28	0xbd205743	-0.03914572
29	0x3d554a2a	0.05207268
30	0xbc598108	-0.013275392
31	0x3ca9b9d0	0.020718485
32	0xbda05a98	-0.078297794
33	0x3da46e89	0.080288954
34	0x3d896d21	0.06710268
35	0xbd339438	-0.043842524
36	0x3c8095d0	0.015696436
37	0xbd4219c6	-0.04738786
38	0xbd613a0e	-0.054987006
39	0x3ceff564	0.029291816
40	0x3bcc3e00	0.006232977
41	0xbc989350	-0.018624932
42	0xbd046f68	-0.032332808
43	0xbbaa8d80	-0.0052048564
44	0xbd77fe46	-0.06054523
45	0xbd855e7f	-0.06512164
46	0x3d9122d5	0.07086722
47	0x3d88412b	0.06653055
48	0xbd727f43	-0.059203397
49	0x3ca07ca0	0.019590676
50	0xbc26ed40	-0.010188401
51	0x3cff8a34	0.03119383
52	0xbd265513	-0.040608477
53	0x3d9a0c63	0.07521894
54	0xbcde6f50	-0.027152687
55	0xbd3a8d46	-0.045544885
56	0xbcbc9390	-0.023019582
57	0x3d99d435	0.075111784
58	0xbd916117	-0.070985965
59	0xbd534263	-0.051576983
60	0x3c399068	0.011325933
61	0x3b337800	0.0027384758
62	0xbca703a4	-0.020387478
63	0xbd1f5e30	-0.038908184
64	0xbb6cae00	-0.0036114454
65	0xbbcfbbf0	-0.0063395426
66	0x3cd0c380	0.025483847
67	0xbd82eff6	-0.06393425
68	0x3d873b19	0.06603069
69	0xbd7ad110	-0.061234534
70	0xbd683623	-0.056692254
71	0x3da81241	0.08206607
72	0x3b268460	0.0025408491
73	0x3d0a3a8e	0.03374725
74	0x3d6449e2	0.055734523
75	0xbcb8cd50	-0.022558838
76	0xbd7488c0	-0.059700727
77	0x3d5a6ce6	0.05332651
78	0xbc077588	-0.008267768
79	0x3d0f969a	0.035055734
80	0xbd9d7e6f	-0.07690131
81	0x3c8f2204	0.017472275
82	0x3cdbedec	0.026846848
83	0x3d1a9472	0.037739225
84	0xbcfdfec0	-0.031005263
85	0xbd3ca8c8	-0.0460594
86	0x3d90f33d	0.07077644
87	0x3d07ac66	0.033123396
88	0xbd7038ab	-0.058647793
89	0x3d83daf7	0.064382486
90	0x3c1c0cc8	0.009524532
91	0x3d492a3a	0.049112536
92	0xbca3d9d4	-0.02000133
93	0x3cc2851c	0.023745112
94	0xbd89f227	-0.0673564
95	0xbcd3b6f0	-0.025844067
96	0xbd879f63	-0.066221975
97	0x3da62e3f	0.081142895
98	0xbd60759e	-0.05479967
99	0x3d7a1be6	0.061061762
100	0xbd35990e	-0.044335417
101	0x3b9c7380	0.004774511
102	0x3d9f567f	0.0778017
103	0x3d0f3cde	0.034970157
104	0xbd11ac68	-0.03556481
105	0xbc4273c0	-0.011868417
106	0xbd51b2f6	-0.05119606
107	0x3c8726a4	0.016497917
108	0xbd60beb6	-0.054869376
109	0x3c2deaf8	0.010615103
110	0x3d801d3d	0.06255577
111	0xbd7dc338	-0.061953753
112	0xbd99f6ac	-0.07517752
113	0x3b8e66f0	0.004345767
114	0x3d0069f8	0.03135106
115	0x3c94ed9c	0.018179707
116	0x3cd9bdec	0.02657982
117	0xbd5db800	-0.054130554
118	0xbd65130e	-0.055926375
119	0xbccc1ccc	-0.024916075
120	0xbc276358	-0.0102165565
121	0x3d2d4b12	0.04230792
122	0xbd0f0f83	-0.034926903
123	0x3c122778	0.008920543
124	0x3ce01a24	0.027356215
125	0xbc885060	-0.016639888
126	0x3d90b8bb	0.070664845
127	0xbd2e2f8e	-0.04252582
128	0xbd80eeee	-0.06295572
129	0x3c9136ac	0.017726265
130	0xbc4ba4c8	-0.012429424
131	0x3d89b51d	0.06723998
132	0xbd5eed40	-0.054425478
133	0xbd727ea6	-0.059202813
134	0xbc107660	-0.008817285
135	0x3d98df71	0.07464493
136	0xbd1a12b3	-0.03761549
137	0xbd8f8c27	-0.07009154
138	0x3d83e8ff	0.06440925
139	0xbc2e3300	-0.010632277
140	0xbca4569c	-0.02006083
141	0xbd542d26	-0.05180087
142	0x3d8e6b9b	0.06954118
143	0xbcaf1b16	-0.02137522
144	0xbcb7fcaa	-0.022459347
145	0x3d408bcd	0.047008324
146	0x3dd88d5f	0.105738394
147	0x3d2dc16d	0.042420793
148	0x3da01a72	0.07817544
149	0x3d4e8b28	0.05042568
150	0x3dccc374	0.09998217
151	0x3cdf615c	0.027268104
152	0x3d59d81b	0.05318461
153	0x3db17f29	0.08666832
154	0x3d4a5151	0.049393956
155	0xbc3dd033	-0.011585283
156	0x3d863659	0.06553335
157	0x3c2bba06	0.010481363
158	0xbd8f0e39	-0.06985135
159	0xbc2987d3	-0.010347324
160	0x3cabdda4	0.02097971
161	0x3d3882ca	0.045046605
162	0xbc635e39	-0.013877445
163	0x3d9c3049	0.07626397
164	0x3d856c3d	0.065147854
165	0x3da8b254	0.082371384
166	0x3c426ac1	0.011866272
167	0xbcf1e730	-0.029529184
168	0x3d34a759	0.044104908
169	0x3d076658	0.033056587
170	0x3d82004a	0.063477114
171	0x3c8874e1	0.016657295
172	0xbd4efc75	-0.05053373
173	0xbd1a91c5	-0.037736673
174	0xbd4c5846	-0.04988887
175	0x3c916796	0.017749589
176	0xbd609a0f	-0.05483442
177	0xbd39937e	-0.045306675
178	0x3cd26a3b	0.02568542
179	0x38a945ab	8.071525e-05
180	0xbd7860be	-0.060639136
181	0xbbbea085	-0.0058174753
182	0xbd17ddcf	-0.037076768
183	0xbd6a0c97	-0.057140913
184	0x3d752322	0.05984796
185	0xbd70972e	-0.058737926
186	0x3d9fa377	0.0779485
187	0x3d08bec1	0.033385042
188	0xbd4d694c	-0.050149247
189	0xbcdda017	-0.027053876
190	0xbd035234	-0.032060817
191	0xbd64b481	-0.055836204
192	0x3ce4c3a0	0.027925313
193	0x3dcac5ef	0.09901034
194	0x3d816efb	0.06319996
195	0x3d9462ff	0.072454445
196	0x3d987b08	0.07445341
197	0x3dd59101	0.10428048
198	0xbdcdb257	-0.10043781
199	0xbab533f8	-0.0013824692
200	0xbdc04ddd	-0.09389851
201	0xbda2ffac	-0.07958922
202	0xbe03167c	-0.12801546
203	0xbdcf0d5a	-0.101099685
204	0xbdce27ac	-0.100661606
205	0xbcbda88d	-0.02315166
206	0xbe150aab	-0.14554851
207	0x3d971dca	0.07378729
208	0x3d087c78	0.033321828
209	0x3da3349b	0.07969018
210	0x3a1ef420	0.0006063599
211	0x3c64283d	0.013925609
212	0xbc89f6a5	-0.016841242
213	0x3d6e2315	0.058138926
214	0x3d663226	0.05620017
215	0x3d8464b6	0.064645216
216	0x3c9dd583	0.01926685
217	0xbd870e02	-0.06594469
218	0xbc6ab3c4	-0.014325086
219	0x3cb7ab7c	0.022420637
220	0xbba119a2	-0.0049163857
221	0xbd8a63e4	-0.06757334
222	0x3dc07014	0.09396377
223	0xbcdced1f	-0.026968537
224	0xbb1e7ed9	-0.0024184494
225	0x3d975d93	0.07390895
226	0x3d0a3cd1	0.033749405
227	0x3d14c6cb	0.036322396
228	0xbb498084	-0.0030746767
229	0x3dcf6d0d	0.10128222
230	0xbd833672	-0.06406869
231	0x39fe127c	0.00048460427
232	0x3dc24b7f	0.09487056
233	0xbd41da98	-0.047327608
234	0x3c900f6a	0.017585475
235	0x3cb7d85c	0.022442035
236	0x3c9e4c76	0.019323569
237	0x3dd4d8f6	0.103929445
238	0x3d6364e9	0.055516157
239	0xbd2df794	-0.042472437
240	0xbd3d7dfe	-0.046262734
241	0x3d9341c9	0.07190282
242	0x3d720acc	0.059092328
243	0x3b9f20a1	0.0048561846
244	0x3d711a21	0.05886281
245	0x3d8afe9e	0.067868456
246	0xbc4c6254	-0.012474615
247	0xbcebaa74	-0.028767802
248	0x3db76bd0	0.089561105
249	0xbcc40c96	-0.023931783
250	0x3c98cdf6	0.018652897
251	0x3db14f9f	0.08657765
252	0x3d60485a	0.0547565
253	0x3d9c4d32	0.07631911
254	0xbda32075	-0.07965175
255	0xbd6f10d0	-0.058365643

enc_conv2.0.bias f4 [32]
0	0xbd9a5c6b	-0.075371586
1	0xbd1b6f61	-0.037948016
2	0x3da7931b	0.08182355
3	0xbd85b1f3	-0.06528082
4	0x3db85f1b	0.09002515
5	0x3b789506	0.0037930622
6	0x3da00cee	0.07814966
7	0xbd1ec80d	-0.038765002
8	0xbb765f3a	-0.003759338
9	0xbd7393b8	-0.059467047
10	0x3c8bd3ed	0.017068828
11	0x3d2c6189	0.042085204
12	0x3b995e2d	0.004680416
13	0xbd19d0ad	-0.037552524
14	0x3c0834b1	0.008313344
15	0xbce45d56	-0.027876537
16	0x3d5044f6	0.050847016
17	0x3dad43e3	0.08460214
18	0x3dacce00	0.08437729
19	0x3d23bcac	0.039974853
20	0x3d54dae1	0.05196655
21	0xbd5c2d22	-0.05375398
22	0x3d9f2ae3	0.07771852
23	0xbbc5c34f	-0.0060352455
24	0x3d72f3a8	0.0593144
25	0xbd4cf132	-0.05003471
26	0x3db1a442	0.08673908
27	0x3d9d2830	0.07673681
28	0xbcd18c04	-0.02557946
29	0x3db66aa1	0.089070566
30	0x3c238e17	0.009982607
31	0x3d9638ec	0.07335076

enc_conv2.2.weight f4 [32, 32, 3, 3]
0	0x3cff8232	0.031190012
1	0xbc5f243c	-0.013619479
2	0x3d01eddf	0.031720992
3	0x3c68e304	0.014214281
4	0x3d69dc97	0.057095136
5	0x3ce3f3be	0.027826186
6	0x3d673bc7	0.056453492
7	0xbd05271f	-0.032508012
8	0xbd068322	-0.0328399
9	0xbd58b980	-0.05291128
10	0x3d200504	0.039067283
11	0xbd9ccb4b	-0.076559626
12	0x3d25af28	0.040450245
13	0xbd2c9ce8	-0.042141825
14	0xbd541e4f	-0.051786717
15	0xbd36b429	-0.044605408
16	0x3d459742	0.048239954
17	0x3cfde171	0.030991288
18	0xbc80ddc6	-0.01573075
19	0xbc8e2efc	-0.017356388
20	0x3b25d11b	0.0025301639
21	0x3c94a570	0.018145293
22	0xbce0d82b	-0.027446827
23	0xbd11e99c	-0.035623178
24	0x3be3173c	0.00693026
25	0x3d040014	0.032226637
26	0x3b861e1e	0.0040929457
27	0x3d0a4ae9	0.033762846
28	0x3d4cffe3	0.05004872
29	0x3d535d9b	0.05160294
30	0x3d11d125	0.035599846
31	0x3d669c27	0.056301262
32	0xbc8d56be	-0.017253276
33	0xbd399c00	-0.04531479
34	0xbd03f37c	-0.032214627
35	0x3d6d03f7	0.05786511
36	0xbc8936ba	-0.016749728
37	0xbcd846e6	-0.026400995
38	0xbd4eb454	-0.050464943
39	0x3c0f5188	0.008747466
40	0x3d1d9057	0.03846773
41	0xbce33839	-0.02773677
42	0x3c942b32	0.018087003
43	0x3d83d494	0.064370304
44	0xbbae7be5	-0.005324828
45	0x3d3b98d5	0.04580005
46	0xbd2fdf4c	-0.042937562
47	0xbd6a86e6	-0.057257555
48	0x3d1f98ad	0.038963962
49	0x3d1107ad	0.03540771
50	0xbd2ec9f2	-0.04267306
51	0x3bd4fe68	0.006500054
52	0x3d5bb526	0.053639553
53	0xbcadc11e	-0.02121025
54	0xbacc793b	-0.0015600094
55	0xbc7b3014	-0.015331287
56	0xbcd5bac0	-0.026090026
57	0xbc8dea5e	-0.017323669
58	0x3cfd4bb4	0.030919887
59	0x3cc7fa99	0.024411486
60	0x3b3f7b54	0.0029217796
61	0x3b99971e	0.004687204
62	0xbd8b4e21	-0.06802011
63	0x3b553ee0	0.0032538697
64	0xbcd9a612	-0.026568446
65	0x3cb15f0e	0.02165177
66	0x3cf9631c	0.030442767
67	0xbcf04b96	-0.029332917
68	0x3bfa2968	0.0076343305
69	0xbcd60054	-0.026123203
70	0xbbca30c7	-0.0061703655
71	0x3d1702cc	0.0368679
72	0xbc23e04d	-0.010002208
73	0xbc20a993	-0.009806055
74	0xbd58649f	-0.052830335
75	0x3d84dc6a	0.06487353
76	0x3d87f71b	0.066389285
77	0xbd165044	-0.03669764
78	0x3d612c98	0.05497417
79	0xbcd92065	-0.026504705
80	0xbd046dee	-0.0323314
81	0x3c8b994a	0.017040867
82	0x3ce00b55	0.027349154
83	0xbcbcdb16	-0.023053687
84	0xbc6d8f3b	-0.014499481
85	0xbcd2557d	-0.02567553
86	0xbd59ac7b	-0.053143006
87	0x3d93bd67	0.0721386
88	0xbd6c8cda	-0.057751514
89	0xbd165df5	-0.0367107
90	0x3da5c4d8	0.080941856
91	0x3b8380e8	0.0040131696
92	0x3cdae0a8	0.026718453
93	0x3d427c34	0.04748173
94	0x3d554add	0.05207335
95	0xbd4708cf	-0.048592385
96	0xbbc1890c	-0.00590623
97	0x3d020c5d	0.03175007
98	0xbcbf46f5	-0.023349265
99	0x3ccb8e23	0.02484805
100	0xbd725424	-0.059162274
101	0xbd4db7df	-0.05022418
102	0x3ca98cf1	0.020697089
103	0x3d332835	0.043739516
104	0xbc574451	-0.0131388465
105	0x3d315bc5	0.04330041
106	0x3ad06c55	0.0015901426
107	0xbce970b1	-0.028496118
108	0x3d6b90b9	0.057511065
109	0x3d6a5a9b	0.057215314
110	0x3c8321b2	0.016007278
111	0xbd06136a	-0.03273336
112	0x3d1d69ec	0.038431093
113	0xbcbc3c98	-0.022978112
114	0xbd5d6e01	-0.054059986
115	0xbd387508	-0.045033485
116	0x3d6d49e4	0.057931796
117	0xbc39715f	-0.011318534
118	0x3c716e36	0.014735749
119	0x3ccd070e	0.025027778
120	0x3c881173	0.016609883
121	0x3d5a9059	0.053360317
122	0x3ca8a2da	0.020585466
123	0x3cca3790	0.024684697
124	0x3cbecd6c	0.023291312
125	0xbc9d9a4c	-0.019238614
126	0x3c55b860	0.013044447
127	0x3c799ee1	0.015235634
128	0xbd400869	-0.04688302
129	0xbc9efa10	-0.019406348
130	0xbc2c39fc	-0.010511871
131	0x3c395fb2	0.011314319
132	0x3ced112d	0.028938854
133	0xbcb6cf25	-0.022315571
134	0xbd9826f1	-0.074293025
135	0xbd4e008a	-0.050293483
136	0x3d42cfc7	0.047561433
137	0xbd0765dd	-0.03305613
138	0xbce97f68	-0.028503135
139	0x3cc64633	0.024203395
140	0x3d5c7eac	0.05383174
141	0x3c0fc4dc	0.008774962
142	0x3c7b32a3	0.015331897
143	0xbc385454	-0.011250574
144	0xbc53b4b7	-0.012921504
145	0xbc896dbd	-0.01677596
146	0xbca06cf4	-0.019583203
147	0x3d6775e2	0.056508906
148	0x3d824437	0.06360667
149	0xbd1563b0	-0.036472023
150	0x3bc08030	0.005874656
151	0x3bbd4cb2	0.005776965
152	0xbd885b58	-0.066580474
153	0xbd273bcf	-0.040828522
154	0xbd0284c0	-0.03186488
155	0x3c90bde8	0.01766868
156	0x3d33ea80	0.04392481
157	0x3d8ab543	0.06772854
158	0x3ce38203	0.027771955
159	0x3db427d0	0.08796656
160	0x3d881796	0.06645124
161	0x3baae2e3	0.0052150353
162	0xbcac4848	-0.02103056
163	0xbcfa7466	-0.030573081
164	0xbd85c813	-0.06532302
165	0xbd1301f2	-0.035890527
166	0x3d88fb57	0.06688564
167	0xbd286672	-0.041113324
168	0x3d9eb73f	0.07749795
169	0x3c81d5f0	0.015849084
170	0xbd5239ca	-0.051324643
171	0x3d5cef75	0.0539393
172	0x3c206067	0.009788609
173	0x3c88aa60	0.016682804
174	0xbce1af2d	-0.02754935
175	0xbd395507	-0.045247104
176	0xbc807cc6	-0.015684497
177	0x3ca21b5a	0.019788433
178	0x3d67c29a	0.05658207
179	0x3c2d0cc9	0.01056213
180	0xbba80d1c	-0.005128516
181	0x3cc8d088	0.024513498
182	0xbd141ee8	-0.036162287
183	0xbc1e8d6e	-0.009677274
184	0x3cef6e91	0.029227527
185	0xbd25af78	-0.040450543
186	0x3d949ce6	0.072564885
187	0x3cba2c08	0.022726074
188	0xbcc1a320	-0.023637354
189	0x3c0ee12a	0.0087206755
190	0x3d23d6f0	0.039999902
191	0xbb779a89	-0.003778132
192	0x3de88731	0.11353911
193	0x3d989f63	0.074522756
194	0xbbf22e6a	-0.007390787
195	0x3d43f76f	0.047843393
196	0x3d5d948e	0.05409675
197	0xb9fd0ccf	-0.00048265464
198	0x3d43ed60	0.0478338
199	0x3cfd29e5	0.030903766
200	0x3c456a21	0.012049229
201	0x3db8af42	0.09017803
202	0x3d6a0757	0.057135906
203	0xbccb1b0f	-0.024793176
204	0xbcaa8ef3	-0.020820117
205	0x3d5fd294	0.054644182
206	0xbd5efa16	-0.05443772
207	0x3d33a7e1	0.043861274
208	0xbd316a28	-0.04331413
209	0xbc3b2780	-0.011422992
210	0x3c53f644	0.012937132
211	0x3ca421e1	0.020035686
212	0xbce98693	-0.028506553
213	0x3d4f21f0	0.050569475
214	0x3d6ae3ed	0.057346273
215	0xbcbd7b9b	-0.023130229
216	0x3c307d1b	0.010772015
217	0xbd84520d	-0.064609624
218	0xbd9fa0f2	-0.0779437
219	0x3d8a42c5	0.067510165
220	0xbbf8e130	-0.007595204
221	0xbcbd566d	-0.0231125
222	0x3d0cfa7b	0.034418564
223	0xbccc64e0	-0.024950445
224	0x3bb65de4	0.005565392
225	0xbd8e2f45	-0.0694261
226	0x3d13fe51	0.036131207
227	0xbcb557a9	-0.022136526
228	0x3d374573	0.044743966
229	0xb805767f	-3.182003e-05
230	0xbd8d185a	-0.0688941
231	0x3d5d8f45	0.05409171
232	0x3d7196a5	0.058981556
233	0xbaa93c1e	-0.0012911593
234	0xbccf6729	-0.025317745
235	0xbd3b3aa2	-0.045710213
236	0xb89e4052	-7.546008e-05
237	0x3d814dbd	0.063136555
238	0x3d3af125	0.04564013
239	0x3d1507d9	0.036384437
240	0x3d95ae4d	0.07308636
241	0x3d18abe5	0.037273306
242	0xbd8dc449	-0.06922204
243	0x3d779605	0.060445804
244	0x3c9d5e26	0.019209933
245	0xbdab1b66	-0.08354835
246	0x3c780db7	0.015139989
247	0x3be84e36	0.0070894016
248	0xbd67563a	-0.056478716
249	0x3d25403f	0.040344473
250	0x3da5e18a	0.08099659
251	0xbd72bf29	-0.059264336
252	0x3d4b590c	0.04964547
253	0x3dd945a1	0.10608984
254	0xbd1ab439	-0.03776953
255	0x3c77e5cb	0.0151304705

enc_conv2.2.bias f4 [32]
0	0xbd0ceb9e	-0.03440439
1	0xbd3f0edf	-0.04664504
2	0x3d75142d	0.059833694
3	0x3d8c594f	0.06852972
4	0x3d859b6e	0.065237865
5	0xbbd99e43	-0.0066411807
6	0x3d3171fa	0.043321587
7	0x3c07d716	0.008291027
8	0x3cc69f9a	0.024246026
9	0x3d723ef8	0.059142083
10	0xbd16e9a9	-0.03684393
11	0x3d356944	0.044289842
12	0x3a4536d3	0.0007523123
13	0x3d86c4c0	0.06580496
14	0x3d501dd3	0.050809693
15	0x3ca28f03	0.019843584
16	0x3d0daf03	0.034590732
17	0x3d86279f	0.06550526
18	0x3d6c1a5d	0.05764233
19	0xb9b7bff2	-0.0003504749
20	0x3d02cc1d	0.03193294
21	0xbb6152fe	-0.0034381743
22	0x3cb7e308	0.022447124
23	0x3d45056c	0.048100874
24	0x3ce544c0	0.027986884
25	0x3d8f0329	0.069830246
26	0x3b4e0f33	0.0031442165
27	0x3cf5f351	0.030023249
28	0x3d680ab7	0.056650843
29	0x3bd2b1d8	0.006429892
30	0x3d1a7636	0.03771039
31	0xbd19c2a1	-0.03753913

bottleneck.0.weight f4 [64, 32, 3, 3]
0	0x3d48b872	0.049004026
1	0x3d4d11b4	0.05006571
2	0x3d539537	0.051655974
3	0xbadfa994	-0.0017064088
4	0x3db4a604	0.088207275
5	0x3db640bb	0.08899065
6	0x3d207af2	0.03917975
7	0x3d997c2d	0.07494388
8	0x3d24a8ec	0.04020016
9	0x3d23a020	0.03994763
10	0x3d259598	0.040425867
11	0xbd09acb4	-0.03361197
12	0x3cfeaeb4	0.031089164
13	0xbd1123a7	-0.03543439
14	0x3b5ec2f7	0.003399072
15	0x3cd1e5f6	0.02562235
16	0xb9d675b7	-0.00040904965
17	0x3cd39a80	0.025830507
18	0x3ca3abc2	0.019979361
19	0x3d63cf60	0.05561769
20	0x3bcd76f7	0.006270285
21	0x3d88a472	0.066719905
22	0xbbc3a0b8	-0.005970087
23	0x3d88e5c3	0.066844486
24	0xbcdcee00	-0.026968956
25	0x3d825410	0.0636369
26	0xbd191292	-0.037371226
27	0x3bbe0ef1	0.005800121
28	0x3d8ce94d	0.06880436
29	0xbd3bc528	-0.04584232
30	0xbd35150b	-0.04420952
31	0xba9d119b	-0.0011983396
32	0x3d6a95aa	0.057271637
33	0x3cbbf2d9	0.022942947
34	0x3c774f20	0.015094548
35	0x3d48c342	0.049014337
36	0x3b100529	0.0021975732
37	0xbcf154d2	-0.02945939
38	0xbc2ed673	-0.010671246
39	0xbd0c223c	-0.034212336
40	0x3cceac4a	0.025228638
41	0x3d421a1b	0.047388177
42	0x3ceff916	0.029293578
43	0x3d3bde77	0.045866456
44	0x3c78bdc4	0.015181962
45	0x3d86a13f	0.06573724
46	0xbd0d6e17	-0.034528818
47	0x3d3fcdaa	0.046826996
48	0x3d82cb7a	0.06386466
49	0xbcdbd34c	-0.026834153
50	0x3cbdb3b1	0.023156973
51	0xbc925243	-0.017861491
52	0xbd150fac	-0.0363919
53	0x3c5472f9	0.012966865
54	0x3d844621	0.064586885
55	0x3d5d1249	0.053972516
56	0xbbdf6ab2	-0.006818139
57	0x3d5d9fca	0.054107465
58	0x3cbd1dd2	0.023085508
59	0x3cd0343c	0.025415532
60	0x3d1bf4aa	0.038075127
61	0x3c843b28	0.01614149
62	0x3d4c4eac	0.049879715
63	0x3da2fa02	0.079578415
64	0x3de3c3ae	0.11121307
65	0x3dfa945d	0.12235329
66	0x3da34fd4	0.079742104
67	0x3db28204	0.08716205
68	0x3dbab1c2	0.09115936
69	0x3d1dab49	0.03849343
70	0x3d726dc3	0.05918671
71	0x3c5e3a9e	0.01356378
72	0x3d2a2f55	0.041549046
73	0x3cced1aa	0.02524646
74	0x3cf4a967	0.029865934
75	0xbce86785	-0.028369674
76	0x3d906b1a	0.07051678
77	0xbc0c71da	-0.008572066
78	0x3d224f9d	0.039626706
79	0xbbf41de3	-0.007449852
80	0xbcd21a90	-0.025647432
81	0x3c9b8b84	0.018987425
82	0x3bb8a3ec	0.0056347754
83	0xbb70934e	-0.0036708894
84	0x3d36c05d	0.044617046
85	0xbd0a6d66	-0.033795737
86	0xbc85f1be	-0.016350623
87	0xbd3ef131	-0.046616737
88	0xbb314943	-0.0027051724
89	0x3cd7a2e4	0.02632279
90	0x3bfa38a3	0.007636146
91	0xbda224c6	-0.0791717
92	0x3cf22bb1	0.02956185
93	0xbd836e6e	-0.06417547
94	0xbd497f92	-0.049193926
95	0xbd3583e2	-0.044315226
96	0x3b2dd7f5	0.0026526425
97	0xbd7e6df8	-0.062116593
98	0xbcfe782e	-0.031063166
99	0xbbca7efe	-0.0061796894
100	0x3d4b6731	0.049658958
101	0xbce2cfcd	-0.027686978
102	0x3cb4213d	0.021988505
103	0x3c96afd9	0.018394398
104	0x3d39c12c	0.04535024
105	0x3d4a08ea	0.049324907
106	0xbd1b3b33	-0.037898254
107	0xbd106460	-0.035251975
108	0xbac530b5	-0.0015044423
109	0x3d2c6bad	0.042094875
110	0xbca1535f	-0.019693075
111	0xbbf1466a	-0.0073631303
112	0x3d8c21c0	0.06842375
113	0x3d8f70bc	0.07003924
114	0x3da68077	0.081299715
115	0x3d7962c3	0.060885202
116	0x3d76db89	0.06026796
117	0xbbdd1e83	-0.006748022
118	0xbc1a0383	-0.009400251
119	0x3d68a86f	0.056801256
120	0xbb95ccac	-0.004571518
121	0xbbecba7e	-0.00722438
122	0xbb9a15bf	-0.0047022994
123	0x3d4a20b1	0.049347583
124	0x3cb419a1	0.021984877
125	0xbd10ee36	-0.035383426
126	0x3d28e710	0.041235983
127	0xbc1919c0	-0.009344518
128	0x3c6aa3e7	0.014321304
129	0xbd0b23d8	-0.03396973
130	0x3b8098ce	0.0039244657
131	0x3d715fbd	0.058929194
132	0x3d5d6196	0.054048143
133	0x3c9cb694	0.019130029
134	0xbc7ce3fe	-0.015435217
135	0x3d4f94be	0.05067896
136	0x3c055513	0.008137959
137	0xbc0413c2	-0.008061351
138	0x3cef4cb8	0.029211387
139	0x3cc7f4ec	0.02440878
140	0x3d86e1b0	0.06586015
141	0xbcea22aa	-0.028580982
142	0x3b50e92b	0.003187726
143	0xbd311fc6	-0.043243192
144	0xbc1ab681	-0.009442926
145	0xbce4517e	-0.02787089
146	0x3c27c02d	0.010238689
147	0xb9c2ed44	-0.0003717934
148	0x3cd6b268	0.026208118
149	0x3d0bf6d6	0.034170948
150	0xbca30ca9	-0.019903498
151	0x3d512a97	0.051066007
152	0x3d5a7e8a	0.053343333
153	0x3d570075	0.05249067
154	0x3d5e18d0	0.05422288
155	0x3d40d61a	0.047079183
156	0x3da7919d	0.081820704
157	0xbc2a235e	-0.010384409
158	0xbc02f47b	-0.007992859
159	0x3d0177b5	0.031608302
160	0x3be0c6fb	0.006859658
161	0xbccb5475	-0.024820546
162	0x3d25df53	0.04049618
163	0x3d510c7f	0.051037308
164	0x3d888cd1	0.066674836
165	0x3cad9cf6	0.021193009
166	0x3d7866e5	0.060645003
167	0xbc3c8963	-0.011507365
168	0xbc262792	-0.01014127
169	0x3d5bc214	0.053651884
170	0x3c253882	0.010084273
171	0x3cf5b0a5	0.029991457
172	0xbcfb128f	-0.030648498
173	0xbd3ad82d	-0.045616318
174	0x3bc6bcf9	0.0060650078
175	0x3d17af70	0.037032545
176	0x3cab6267	0.020920945
177	0xbb88bc93	-0.0041728704
178	0x3bea7648	0.0071552135
179	0x3ca69dd5	0.020338932
180	0x3cfc37a5	0.030788252
181	0xbaffd2d1	-0.0019517784
182	0xbc341373	-0.010990965
183	0x3dc3f7f8	0.09568781
184	0x3de0d9d8	0.109790504
185	0x3d0f9f4e	0.035064034
186	0x3d88c03c	0.06677291
187	0x3dd05338	0.10172123
188	0x3d710724	0.0588447
189	0x3ce52657	0.027972383
190	0xbd22a882	-0.039711483
191	0x3c2d7187	0.010586149
192	0xbd0c5177	-0.03425738
193	0xbcd76464	-0.026292987
194	0x3d13fec9	0.036131654
195	0xbd4557ad	-0.048179317
196	0x3d10758c	0.03526835
197	0x3d3131c2	0.043260343
198	0xbd46ded0	-0.048552334
199	0x3d3fa5c4	0.046788946
200	0x3d6943b6	0.05694934
201	0x396582eb	0.00021887913
202	0x3d3ef87e	0.0466237
203	0x3caf3777	0.021388752
204	0xbd3175ea	-0.043325342
205	0xbca86fb8	-0.020561084
206	0xbd510159	-0.051026676
207	0x3c41f6cd	0.011838627
208	0x3d8ba483	0.068184875
209	0x3cf08b14	0.029363193
210	0x3cf608db	0.03003352
211	0xbc19fe22	-0.009398969
212	0x3ce0d534	0.027445413
213	0xbcb6cb10	-0.022313625
214	0x3d022425	0.03177275
215	0xbcd0441d	-0.025423104
216	0xbd32e098	-0.04367122
217	0x3d0184f3	0.03162093
218	0xbd10b329	-0.03532711
219	0x3d50fc19	0.05102167
220	0x3d7724fa	0.060337998
221	0xbc97c08a	-0.018524427
222	0xbd127ddb	-0.035764556
223	0xbbf823c4	-0.007572623
224	0x3ca01f32	0.019546125
225	0xbb4825e9	-0.0030540174
226	0xbb9a8d9a	-0.0047165873
227	0x3d63496b	0.05548994
228	0xbcb7fd2c	-0.022459589
229	0xbd05ddec	-0.032682344
230	0xbd018dcc	-0.03162937
231	0x3d26c77d	0.04071759
232	0x3bbd005e	0.005767866
233	0x3cbaece1	0.02281803
234	0x3a1e5a25	0.0006040654
235	0x3ce33472	0.027734969
236	0x3d0acd2b	0.03388707
237	0x3cbaed66	0.022818279
238	0x3d4036c8	0.046927243
239	0xbd029609	-0.031881366
240	0xbcfff7fc	-0.031246178
241	0x3d7828f1	0.06058592
242	0x3d03f54d	0.03221636
243	0xbcef63ae	-0.029222336
244	0x3d34c11f	0.044129487
245	0xbabd173f	-0.0014426484
246	0xbca27160	-0.019829452
247	0xbce8f7e5	-0.028438518
248	0x3d8ca1a3	0.06866767
249	0x3d7b9651	0.06142265
250	0x3d3bf58c	0.04588847
251	0xbd1dcce5	-0.03852548
252	0x3d259b28	0.04043117
253	0x3d0cfc78	0.03442046
254	0xbd01d6ec	-0.031699106
255	0xbc900ffc	-0.017585747

bottleneck.0.bias f4 [64]
0	0x3c9401ee	0.018067326
1	0x3d5871cd	0.052842904
2	0x3c8bacf0	0.017050236
3	0xbbf1725d	-0.0073683695
4	0x3cc725c5	0.024310002
5	0xbd03dfb5	-0.032195766
6	0xbd05ad30	-0.032635868
7	0xbcdc21e0	-0.026871622
8	0x3d950ead	0.0727819
9	0x3c697aca	0.014250467
10	0xbd2ab0ea	-0.041672625
11	0x3d5e23ac	0.054233238
12	0x3c26f870	0.010191068
13	0x39fb54c3	0.00047937603
14	0xbc4605ba	-0.012086326
15	0xbb9a43d0	-0.004707791
16	0x3caea67c	0.02131962
17	0x3d45c222	0.048280843
18	0x3d5f40f3	0.0545053
19	0x3cfa79ac	0.030575596
20	0x3d5cf2b7	0.05394241
21	0xbc148ba6	-0.009066498
22	0xbc112956	-0.008859953
23	0xbd4609ae	-0.048349075
24	0xbc106983	-0.008814218
25	0xbd0db831	-0.034599487
26	0xbd296ce3	-0.041363608
27	0xbd35ff35	-0.044432838
28	0x3d00622d	0.031343628
29	0xbb175575	-0.0023091708
30	0x3d48b74b	0.049002927
31	0xbceae696	-0.028674405
32	0xbce89677	-0.02839206
33	0x3d2c7a58	0.042108864
34	0xbc9cbc33	-0.01913271
35	0x3c0d9c7e	0.008643268
36	0xbcdf09f9	-0.027226435
37	0xbd1c40b8	-0.038147658
38	0x3d878046	0.06616263
39	0xbd6a906c	-0.057266638
40	0x3d17f68e	0.037100367
41	0xbbba53ea	-0.005686273
42	0xbc070917	-0.008241913
43	0xbcdeda78	-0.027203783
44	0x3b80143f	0.0039086635
45	0x3a0d594f	0.0005392031
46	0x3c7bc04d	0.015365672
47	0xbce49224	-0.027901717
48	0x3bd899bb	0.006610123
49	0xbaf4a466	-0.0018664717
50	0xbbffb936	-0.0078040613
51	0xbc0633f3	-0.008191097
52	0x3c98a101	0.01863146
53	0xbd61702b	-0.055038612
54	0x3d86b55f	0.065775625
55	0x3d04369d	0.032278646
56	0x3cfd6eef	0.030936686
57	0x3d829ca8	0.06377536
58	0x3d223603	0.03960229
59	0xbcb93259	-0.022607015
60	0xbc550758	-0.013002239
61	0x3cd5c707	0.02609588
62	0x3d57a5bc	0.05264829
63	0x3d276787	0.040870216

bottleneck.2.weight f4 [64, 64, 3, 3]
0	0xba1f4ab9	-0.0006076503
1	0x3a6db446	0.00090676954
2	0x3be2dbf8	0.006923195
3	0x3cb1fd94	0.02172736
4	0x3d52e39e	0.051486604
5	0x3d0909be	0.033456556
6	0x3c6a3320	0.014294416
7	0x3d22aa5a	0.03971324
8	0xbc272458	-0.010201536
9	0x3d10ed02	0.03538228
10	0xbccaaaf2	-0.024739716
11	0x3d36bca3	0.04461349
12	0x3cbb77cb	0.02288427
13	0xba49a4d0	-0.00076921005
14	0x3d1ba037	0.03799459
15	0x3d54bddc	0.051938877
16	0x3d0d649e	0.034519784
17	0x3d475bb9	0.048671458
18	0x3b260c7a	0.0025337026
19	0x3b6afcc2	0.0035856222
20	0xbce8f527	-0.02843721
21	0x3cf7c458	0.030244991
22	0x3c93d86d	0.018047536
23	0x3ca0cd9f	0.019629298
24	0x3db435cd	0.08799324
25	0x3d065605	0.03279688
26	0x3d00b531	0.031422798
27	0x3c8556d1	0.016276749
28	0x3ceea2cb	0.02913036
29	0x3d0a7a3d	0.03380798
30	0xbcd193c9	-0.025583165
31	0x3bfe6a3a	0.007764128
32	0xbafca6d6	-0.0019275795
33	0x3d02e3df	0.031955596
34	0xbca7d380	-0.020486593
35	0x3cf89e65	0.030348966
36	0x3d3d7ae2	0.04625977
37	0x3d0a427f	0.033754822
38	0x3c112c8d	0.008860719
39	0x3beb3cb1	0.007178866
40	0xbcb78f17	-0.022407098
41	0xbc01811c	-0.007904317
42	0x3d1edb77	0.038783517
43	0x3cc551e5	0.024086902
44	0x3c2ecc3f	0.010668813
45	0x3d052af5	0.03251167
46	0x3d20ebe4	0.039287463
47	0xbd00d4bc	-0.03145288
48	0x3cf26ca0	0.029592812
49	0xbbe2e205	-0.0069239163
50	0x3ce70a3a	0.028203119
51	0xbcc6185a	-0.024181534
52	0xbd0d0146	-0.034425043
53	0xbd0e6f4c	-0.03477411
54	0x3d4a59a2	0.049401887
55	0x3ba0ad79	0.004903492
56	0x3cc5e536	0.024157148
57	0x3d188a3a	0.037241198
58	0x3ade60d1	0.0016966109
59	0x3d105d5e	0.035245292
60	0xbc6224a2	-0.013802679
61	0x3d1c15bc	0.038106665
62	0x3d143579	0.036183808
63	0x3cbeccea	0.02329107
64	0xbc9571f4	-0.018242814
65	0xbc70413f	-0.014663993
66	0xbcd832de	-0.026391443
67	0x3c1521bf	0.009102284
68	0xbbb1445d	-0.005409761
69	0x3c24ba4f	0.010054185
70	0x3cb49bf3	0.022047019
71	0x3ca358bc	0.019939773
72	0xba5990ce	-0.00082994706
73	0x3d28389d	0.041069616
74	0xbc542b52	-0.0129497815
75	0x3d2a0e9c	0.04151784
76	0xbcdd3bc9	-0.027006047
77	0x3d157c5d	0.036495555
78	0x3c64b839	0.013959938
79	0x3d4181b1	0.047242824
80	0xbc687b74	-0.01418959
81	0x3d20d522	0.03926576
82	0x3d9b830d	0.07593355
83	0x3d3519f8	0.04421422
84	0x3da7dd20	0.08196473
85	0x3cdcd7a8	0.026958302
86	0x3cb5973c	0.02216684
87	0x3d9e96bc	0.07743594
88	0x3cc9bc96	0.024626058
89	0x3adb5d1a	0.001673612
90	0x3c1b16e7	0.00946591
91	0x3ca4e704	0.020129688
92	0xbc6ca942	-0.014444651
93	0x3c1e4d48	0.00966198
94	0x3d09485f	0.033516284
95	0x3d24ec82	0.040264614
96	0x3d237982	0.0399108
97	0xbb5583c4	-0.003257976
98	0x3ba537f2	0.0050420696
99	0xbd154769	-0.036445055
100	0x3bea94ba	0.007158843
101	0x3c529fa4	0.012855444
102	0x3c6be5be	0.0143980365
103	0xbc3b30bf	-0.011425196
104	0x3cd22b74	0.025655486
105	0xbba7e5b5	-0.0051238188
106	0xbcd64255	-0.026154676
107	0x3cb79767	0.022411061
108	0x3cec1067	0.028816415
109	0x3d443725	0.047904152
110	0x3d287df7	0.041135754
111	0xbb34d0b2	-0.0027590212
112	0xbc83c44f	-0.016084818
113	0xbcac0475	-0.020998219
114	0xbceb5438	-0.028726682
115	0x3c054652	0.008134441
116	0xbcc46c65	-0.023977468
117	0x3c69a083	0.01425946
118	0xbc12c53d	-0.008958158
119	0x3d558123	0.052125107
120	0x3cb395aa	0.021921951
121	0x3d54cb0b	0.05195145
122	0xbc8d2407	-0.017229093
123	0x3d25c021	0.04046643
124	0xbcecd970	-0.028912276
125	0x3c938b00	0.018010616
126	0x3cfdf397	0.030999942
127	0x3cdc70b0	0.026909202
128	0xbbed9a60	-0.007251069
129	0xbc2bac12	-0.0104780365
130	0xbc8ca6ef	-0.017169444
131	0x3bbd9d3b	0.0057865656
132	0xbc686eb2	-0.014186548
133	0x3bd564e1	0.00651227
134	0x3c9cb3ef	0.019128768
135	0x3b5693f2	0.003274199
136	0xb9734ae9	-0.00023202192
137	0x3caba089	0.020950573
138	0x3b216fe8	0.0024633352
139	0xbb23dae8	-0.0025002304
140	0xb8e2338e	-0.000107861226
141	0xbc09e2e1	-0.008415909
142	0xbc24c457	-0.010056577
143	0x3c961d44	0.018324502
144	0xbcffc868	-0.03122349
145	0x3d9574f9	0.072977014
146	0x3d25ac89	0.040447745
147	0x3d2bdf5b	0.041961055
148	0x3d6104f6	0.05493637
149	0x3d61cb11	0.0551253
150	0xbc13f239	-0.009029918
151	0x3db86846	0.090042636
152	0x3d9e71fe	0.07736586
153	0xbc965c71	-0.018354626
154	0x3b929745	0.004473599
155	0x3d44b8b2	0.0480277
156	0xbcdbe230	-0.026841253
157	0x3bbd4644	0.0057761986
158	0x3d4e03b7	0.05029651
159	0x3d18d0a3	0.037308346
160	0x3ceb7297	0.028741164
161	0x3d48ec0e	0.049053244
162	0x3d21a232	0.039461322
163	0xbca87d0a	-0.020567436
164	0x3b53f72b	0.0032343369
165	0x3ba7419e	0.0051042577
166	0x3d2fc1bf	0.04290938
167	0x3ca8edbc	0.020621173
168	0xb8dd944e	-0.00010565725
169	0xbb3b75f2	-0.0028604236
170	0xbc76e511	-0.015069262
171	0x3d0b4c49	0.034008298
172	0x3cc28989	0.023747222
173	0x3c028be8	0.007967927
174	0xbcbf1558	-0.023325607
175	0x3cabe7e3	0.020984596
176	0x3d125ee2	0.03573502
177	0x3c22e393	0.009941953
178	0x3ce12438	0.02748309
179	0x3d4951ec	0.049150392
180	0x3d0594a2	0.03261245
181	0xbb9e9a9e	-0.004840209
182	0x3c6904c6	0.0142223295
183	0xbbb27e34	-0.0054471735
184	0x3d24fe97	0.04028186
185	0xbbbc52a0	-0.0057471544
186	0x3cc40d7b	0.02393221
187	0x3d23a90b	0.039956134
188	0x3d542ea3	0.05180229
189	0xbb15957e	-0.00228247
190	0x3cb11a4a	0.02161898
191	0x3d0bb490	0.034107745
192	0x3b49030c	0.0030671982
193	0x3d276919	0.040871713
194	0x3caa6a22	0.020802561
195	0xbd253fba	-0.040343978
196	0x3c1b2a62	0.009470554
197	0xbd0990c6	-0.033585332
198	0x399e8e51	0.00030242142
199	0x3d262be6	0.04056921
200	0xbcc69d2c	-0.024244867
201	0x3aa1b517	0.0012337294
202	0xbc2558af	-0.010091945
203	0x3cd3c181	0.025849106
204	0xbc6118a0	-0.013738781
205	0xbab71fb3	-0.0013971239
206	0x3d20f881	0.03929949
207	0xbb585c90	-0.0033014156
208	0x3a8c0360	0.0010682158
209	0x3ba54148	0.0050431825
210	0xbd11501b	-0.035476785
211	0x3bece068	0.0072288997
212	0x3b6b12c0	0.003586933
213	0x3cf58f76	0.029975634
214	0xbcad459e	-0.02115136
215	0xbce2dca6	-0.027693104
216	0xbcdb1ee5	-0.02674813
217	0x3d262e59	0.040571544
218	0x3d30cff2	0.043167062
219	0xbc9a4a69	-0.01883431
220	0xbca662ba	-0.020310748
221	0x3cedb31e	0.029016074
222	0x3d317c22	0.043331273
223	0x3c3162ad	0.010826749
224	0xbb2ac5ca	-0.0026057833
225	0xbd11d2a0	-0.03560126
226	0xbccfa7ab	-0.025348505
227	0x3d1661d0	0.036714375
228	0xbc9c8d05	-0.019110212
229	0xbcd0d905	-0.025494108
230	0x3cf4dd01	0.02989054
231	0x3d2558f7	0.040368047
232	0x3c95c82c	0.018283926
233	0x3bbf8324	0.0058444906
234	0xbc346def	-0.011012538
235	0xbbf4bd67	-0.0074688676
236	0x3d03153b	0.03200267
237	0x3c7197b7	0.014745644
238	0xbc1b6bf7	-0.00948619
239	0x3d1b75d0	0.03795415
240	0x3bce25f1	0.006291144
241	0xbcacc755	-0.021091143
242	0x3d06eda3	0.03294147
243	0xbc7fa5d7	-0.015603504
244	0xbcc36519	-0.023851918
245	0x3ba85d0d	0.0051380456
246	0x3d06825b	0.03283916
247	0x3be0e46a	0.0068631666
248	0x3c8863ac	0.01664909
249	0x3ca977e3	0.02068705
250	0x3cd17aff	0.025571344
251	0xbb719f94	-0.0036868798
252	0x3c594ef9	0.013263457
253	0xbcf7a501	-0.030230047
254	0x3ce61529	0.028086262
255	0xbc0794af	-0.008275195

bottleneck.2.bias f4 [64]
0	0x3d1f4df2	0.038892694
1	0x3d195d65	0.037442584
2	0xbc906327	-0.017625405
3	0xbc731fba	-0.014839107
4	0x3cba3ecc	0.022735022
5	0x3cee1030	0.029060453
6	0xbcd26cb1	-0.025686594
7	0x3ba54bf0	0.005044453
8	0xbd103ede	-0.035216205
9	0xbc3f13df	-0.0116624525
10	0xbcd52f98	-0.026023671
11	0x3cac5412	0.021036182
12	0x3ca1c31c	0.019746356
13	0x3d1bb00e	0.038009696
14	0x3d1c1c11	0.038112704
15	0x3c76c3e2	0.015061351
16	0x3bd8841c	0.0066075455
17	0xbd2cdc00	-0.042201996
18	0x3c52e52a	0.01287202
19	0x3cb066fd	0.021533484
20	0xbca5540f	-0.020181684
21	0x3c7e852a	0.0155346785
22	0x3b2e8946	0.0026632114
23	0x3d048dc8	0.032361776
24	0x3ca2f702	0.019893173
25	0x3c2682d3	0.010163027
26	0x3cfb1b41	0.030652644
27	0xbd0a67d2	-0.033790417
28	0x3c474d2e	0.012164397
29	0xbce8df76	-0.028426867
30	0x3c023032	0.007946061
31	0x3cdbb4b9	0.026819574
32	0x3d41cce5	0.047314543
33	0x3cd04ddf	0.025427757
34	0x3cf6f5a3	0.030146426
35	0x3ce078ba	0.027401317
36	0xbba4d29b	-0.005029989
37	0x3d59afec	0.053146288
38	0xbc6bdbfa	-0.014395708
39	0x3a9dd8c9	0.0012042756
40	0x3c63c799	0.013902568
41	0x3cfb2638	0.030657873
42	0x3d2cba7d	0.042170037
43	0x3d0e3413	0.03471763
44	0x3d10e1ba	0.03537152
45	0x3d070af1	0.03296942
46	0x3aa2eda0	0.0012430437
47	0xbcf1c33a	-0.029512037
48	0x3cccb5f3	0.024989104
49	0x3cffba89	0.031216877
50	0x3d344583	0.044011604
51	0xb9f875a9	-0.0004738991
52	0xbbe7ae5d	-0.0070703463
53	0xbceca1e8	-0.028885797
54	0xbcb76c7a	-0.022390593
55	0xbc968f86	-0.018378984
56	0x3c40d3dc	0.011769261
57	0x3c8dba5a	0.017300773
58	0x3cb70cc7	0.02234496
59	0x3c77561f	0.015096216
60	0x3beeec6c	0.0072913673
61	0x3abf2e73	0.0014585987
62	0x3c8d1045	0.017219672
63	0xbc97f0f7	-0.018547518
