task_2_segmentation/Model Weights/hypothesis_2_full_saved_mode.pth (torch, 477724 bytes, 25 tensors)

enc_conv1.0.weight f4 [16, 3, 3, 3]
-0.17215723 0.14047772 0.11492506 0.055973735 0.04084226 -0.0023658662 0.04140732 -0.1246147
-0.15802322 0.004996035 0.059760347 0.15456721 0.09714811 -0.03566179 0.0981018 -0.13372055
0.12465741 0.08532187 0.097728394 0.044096887 0.06630927 0.1868673 -0.0122203985 -0.07437018
0.18740068 0.10050853 -0.15540008 0.075545266 -0.15020464 0.026809413 -0.009873406 0.03786915
0.13674557 0.039115958 0.020382272 -0.0522852 -0.054594744 -0.047039274 -0.12801296 -0.021696657
-0.041551296 0.026990192 0.04707101 0.1681632 -0.013727798 0.0013698809 -0.17065263 0.113899335
-0.002988018 0.047854166 -0.053031493 0.12976219 0.038931996 0.002617083 0.049636334 0.018584358
0.0923131 -0.07691053 0.11084171 0.122860864 -0.09672832 0.034596026 0.13483767 -0.075275674
0.14980042 0.04580462 -0.1670431 0.18520108 0.13949472 0.026294112 -0.18419412 -0.123803645
0.024924424 0.17335603 0.10407939 0.16516183 0.12977506 0.08497493 0.12187432 -0.16071188
0.060274903 -0.03563435 -0.16033617 0.003395182 0.06409781 -0.13886106 -0.14691962 0.185602
0.038784362 -0.15193963 -0.10275145 -0.12639937 -0.06105544 -0.1813835 0.0826963 0.11600302
0.085396275 -0.01999473 0.1579807 -0.12271365 -0.09492356 0.18301454 -0.018611332 0.121240005
0.11585863 0.10171376 -0.008924309 0.10382858 0.08630712 -0.07914333 -0.18923502 0.14910616
-0.14629295 -0.0350124 -0.07714673 0.015578722 0.012358524 0.13679892 0.1099315 -0.18416163
0.060609728 -0.11078914 -0.17549898 0.20082308 0.21979046 -0.21709397 -0.10193979 0.099859
-0.23058707 0.1008925 -0.004604298 -0.23643109 -0.06179333 -0.046559114 -0.06764782 -0.032350067
0.16961893 0.05524982 0.113206536 -0.050597154 -0.14669994 0.14292091 0.00095754233 -0.10266862
0.12800924 0.061381213 0.19250554 -0.0604908 -0.06105758 -0.08337066 0.17035678 -0.12609838
-0.114765726 0.15735295 -0.023819348 0.037876207 0.02691585 -0.15972076 -0.1607471 -0.09608941
0.1084154 -0.07412178 0.043886002 -0.10647646 -0.18708123 -0.0027259637 0.09575221 -0.08239104
-0.092375256 0.221797 -0.05915343 -0.062968485 -0.06461216 -0.15914315 0.11210187 0.002383477
0.10643086 -0.0105766775 0.085927896 0.19065946 0.0006404968 -0.24333979 -0.24528442 -0.014740608
-0.14821474 0.054564472 0.11697794 -0.0628747 0.11812887 0.03559875 0.07195722 0.12859692
-0.07667236 -0.0059651355 0.06617574 -0.11508906 -0.07577434 -0.09139133 0.032063253 -0.06779164
0.025425998 0.07124223 -0.08255185 0.0492349 0.13957828 -0.046073854 0.1843439 0.16309242
0.010581708 0.099026754 0.056612708 -0.084337845 -0.04057407 0.013408104 0.023099355 0.029213568
-0.032319386 -0.028634686 -0.12790518 0.13697198 -0.17948358 -0.08768045 0.04686531 -0.1837586
0.2025795 -0.11066357 -0.09978903 0.037752576 -0.15508874 -0.045778796 -0.04292102 -0.11408551
0.052871477 0.059069943 -0.17954792 -0.20347194 0.11328657 -0.10587442 -0.10713546 0.203625
0.11464621 0.09558532 0.14383492 -0.027793739 -0.13552792 0.14639992 -0.032855425 -0.06718663
-0.005029895 0.08408301 -0.019949675 -0.06570042 -0.1365415 -0.0385159 -0.10503505 -0.1318552
00000000: fc49 30be 64d9 0f3e d45d eb3d b744 653d
00000010: 374a 273d a60c 1bbb b99a 293d fe35 ffbd
00000020: d7d0 21be c7b5 a33b 44c7 743d de46 1e3e
00000030: 97f5 c63d 1912 12bd 99e9 c83d 0aee 08be
00000040: 624c ff3d 3cbd ae3d d325 c83d f09e 343d
00000050: 28cd 873d 245a 3f3e 1138 48bc 654f 98bd
00000060: f7e5 3f3e 6bd7 cd3d 3321 1fbe 7ab7 9a3d
00000070: 3fcf 19be 6a9f db3c 11c4 21bc af1c 1b3d
00000080: 0807 0c3e 0e38 203d b9f8 a63c 0229 56bd
00000090: bd9e 5fbd 41ac 40bd d415 03be 30bd b1bc
000000a0: b131 2abd 891a dd3c 88cd 403d f932 2c3e
000000b0: 8fea 60bc 938d b33a 90bf 2ebe 0e44 e93d
000000c0: a0d2 43bb bb02 443d 8d37 59bd 61e0 043e
000000d0: 2877 1f3d 5e83 2b3b 784f 4b3d 393e 983c
000000e0: a70e bd3d 4583 9dbd fa00 e33d 7a9e fb3d
000000f0: 7f19 c6bd 90b4 0d3d e312 0a3e 222a 9abd
00000100: 4865 193e a09d 3b3d 590d 2bbe 5aa5 3d3e
00000110: b4d7 0e3e c066 d73c 629d 3cbe c48c fdbd
00000120: 4e2e cc3c 3e84 313e 9327 d53d 2f20 293e
00000130: c1e3 043e 5607 ae3d 3e99 f93d a891 24be
00000140: d1e2 763d 53f5 11bd 2a2f 24be b481 5e3b
00000150: b645 833d 9831 0ebe 1972 16be 730e 3e3e
00000160: 5adc 1e3d 1096 1bbe 5a6f d2bd d66e 01be
00000170: 4515 7abd 99bc 39be ae5c a93d fe92 ed3d
00000180: 3ee4 ae3d fdcb a3bc b1c5 213e 4b51 fbbd
00000190: 4967 c2bd 2a68 3b3e cb76 98bc ae4c f83d
000001a0: 4a47 ed3d 4e4f d03d 4437 12bc 14a4 d43d
000001b0: cac1 b03d e615 a2bd d3c6 41be 49af 183e
000001c0: d2cd 15be 2a69 0fbd 1bff 9dbd e53d 7f3c
000001d0: 687b 4a3c 0415 0c3e c423 e13d de94 3cbe
000001e0: e841 783d 6be5 e2bd 01b6 33be 91a4 4d3e
000001f0: c010 613e e24d 5ebe cfc5 d0bd e082 cc3d
00000200: 041f 6cbe baa0 ce3d a7df 96bb fe1a 72be
00000210: 011b 7dbd c5b4 3ebd f18a 8abd 8181 04bd
00000220: 96b0 2d3e a34d 623d d4d8 e73d f63e 4fbd
00000230: 8238 16be dc59 123e 9403 7b3a ed43 d2bd
00000240: db14 033e de6a 7b3d 2c20 453e 33c5 77bd
00000250: 8317 7abd 3dbe aabd 0272 2e3e ef1f 01be
00000260: 4b0a ebbd 2221 213e cb20 c3bc 1524 1b3d
00000270: a17e dc3c d78d 23be e39a 24be 86ca c4bd
00000280: e508 de3d 29cd 97bd cfc1 333d 5510 dabd
00000290: 3992 3fbe 15a6 32bb bc19 c43d a2bc a8bd
000002a0: 3d2f bdbd c11e 633e de4a 72bd 9ff5 80bd
000002b0: 6153 84bd 6cf6 22be aa95 e53d 1c34 1c3b
000002c0: 6cf8 d93d cd49 2dbc f7fa af3d 3c3c 433e
000002d0: 03e7 273a 112e 79be d72b 7bbe 9782 71bc
000002e0: 9bc5 17be ff7e 5f3d 2192 ef3d 73c4 80bd
000002f0: 8ded f13d ffcf 113d 4f5e 933d e9ae 033e
00000300: 6606 9dbd 2f77 c3bb 2587 873d d0b3 ebbd
00000310: 942f 9bbd 612b bbbd c254 033d 58d6 8abd
00000320: 2f4a d03c 72e7 913d f210 a9bd 89aa 493d
00000330: 9ced 0e3e f0b7 3cbd a6c4 3c3e b301 273e
00000340: e65e 2d3c 8ace ca3d bae2 673d 52b9 acbd
00000350: ff30 26bd aaad 5b3c dc3a bd3c 4b51 ef3c
00000360: 5561 04bd 4a93 eabc 93f9 02be 6242 0c3e
00000370: 8bca 37be cf91 b3bd d7f5 3f3d 372b 3cbe
00000380: 0071 4f3e 95a3 e2bd 315e ccbd 72a2 1a3d
00000390: 95cf 1ebe 8c82 3bbd f4cd 2fbd aaa5 e9bd
000003a0: c38f 583d 53f3 713d 69db 37be f35a 50be
000003b0: ca02 e83d b0d4 d8bd d669 dbbd 1283 503e
000003c0: a2cb ea3d 3cc2 c33d 7649 133e b2af e3bc
000003d0: d5c7 0abe dce9 153e 6993 06bd 2599 89bd
000003e0: d1d1 a4bb b733 ac3d 806d a3bc f18d 86bd
000003f0: 89d1 0bbe d9c2 1dbd 9e1c d7bd 0d05 07be

enc_conv1.0.bias f4 [16]
-0.110976905 0.055978447 -0.05780741 -0.034751903 -0.018868593 0.056039736 -0.02361097 -0.033215404
-0.022174554 0.123452686 0.064243205 0.20420209 -0.10137778 -0.029560355 -0.08341281 -0.07068918
00000000: dc47 e3bd a849 653d 76c7 6cbd 0358 0ebd
00000010: 4f92 9abc ec89 653d cb6b c1bc e00c 08bd
00000020: 69a7 b5bc c3d4 fc3d f191 833d 5a1a 513e
00000030: 279f cfbd 8f28 f2bc 56d4 aabd 7dc5 90bd

enc_conv1.2.weight f4 [16, 16, 3, 3]
-0.037236292 -0.057188004 -0.023508988 -0.061161943 -0.07289545 -0.026827756 -0.05537039 -0.04539391
-0.052373007 -0.014783757 -0.03476867 -0.0034770172 -0.0034546943 -0.049557697 -0.022880202 -0.0020243463
0.082835816 0.038249806 -0.04190786 -0.077902 0.046524875 0.031630848 -0.03398726 0.057511352
0.02489808 0.025284411 0.067341715 -0.012224005 0.050135504 -0.08485584 -0.061633967 -0.08759937
-0.060335018 0.057940844 -0.048885513 0.069406785 0.071973965 -0.011308398 -0.097735815 -0.010300906
-0.018276462 -0.13897721 0.06357647 0.008963757 -0.0115521 0.0032078074 -0.052813802 0.056451503
-0.0044852337 -0.020170892 -0.032047886 -0.056661144 -0.071380556 0.06363952 0.030489372 -0.018793711
0.022008533 0.0010502855 -0.002049256 -0.047586415 0.048216805 -0.09422702 0.003699755 -0.031466745
0.03333566 -0.063287966 -0.06700891 0.019787733 -0.02324064 -0.009903336 -0.07252623 -0.034964744
0.0045907334 -0.02720926 -0.025902981 -0.004100459 0.03465472 -0.010635481 -0.010551786 -0.025423774
0.031209702 0.025310136 -0.0017312921 0.05478377 -0.00383917 0.08552529 0.06913868 0.099872455
0.04965477 0.026680233 -0.0437209 -0.022587446 0.027643988 0.06517696 -0.028610902 0.049404383
-0.024339925 -0.052508075 -0.038426574 -0.05656086 0.005079215 0.03318838 0.027432775 -0.004621519
0.07266892 0.03125714 0.055036515 0.062755756 -0.104126476 -0.038417615 -0.069524206 -0.07481285
-0.018040953 -0.033836775 -0.07071851 -0.020740274 -0.017236974 0.055873636 0.13642919 0.11369919
0.12477733 0.103099175 0.012106138 0.062519245 0.10048643 0.01414488 0.025770048 0.037278097
0.069473855 0.029423838 -0.050443824 0.069942646 -0.048008893 0.06938814 0.019121999 0.009052109
0.047729943 -0.036564134 0.085975595 0.027286205 0.10319866 0.09625715 0.0037640543 0.07259678
0.06440482 0.016097315 0.08034616 -0.049209867 -0.030787192 -0.05311043 -0.044649627 -0.00287084
-0.041104823 0.09072209 -0.03273946 0.028185068 0.06254087 0.035136405 0.080031 -0.036006924
-0.057610307 0.04621462 -0.02277158 0.034620747 0.0055136 0.023588864 0.027626108 0.04205665
-0.05320822 0.04393493 -0.06763722 -0.0061254445 -0.04442307 0.014850585 0.018497737 0.091280796
-0.028680187 -0.0042157965 0.08490958 0.015304286 0.035046704 -0.02438425 0.14590773 -0.008456713
0.071048304 0.0244352 0.061760254 0.09505064 0.10154563 -0.011508295 0.071539655 0.08559153
-0.045735348 -0.03388168 0.013642572 -0.026082378 0.04787704 0.024985576 0.015303735 -0.06387362
-0.09092443 0.068915725 0.057574265 0.026067166 0.03318915 -0.021478629 0.034635417 -0.034399316
-0.028690338 0.020714507 0.07873472 -0.07463631 0.07612621 0.045743603 0.06409061 0.053746957
-0.044636127 -0.0084396945 -0.112635635 0.0021977602 -0.08696838 -0.02665298 -0.04866939 -0.025161771
0.026310958 0.055937003 0.008498523 0.009129675 0.07504757 -0.06128511 0.07837138 -0.030231284
0.07645166 -0.05742586 -0.0021685723 -0.022290574 0.028734017 0.07767993 -0.06982253 0.06403241
-0.051288005 -0.003278357 0.0044766655 0.02429229 0.092872664 0.02624683 0.014725722 -0.05081294
0.04587796 0.03868034 0.055594034 -0.0042128335 0.01955186 0.013326754 0.05360938 -0.041783564
00000000: 1585 18bd f83d 6abd ec95 c0bc f284 7abd
00000010: 364a 95bd e2c5 dbbc 10cc 62bd f7ee 39bd
00000020: 1485 56bd 9237 72bc 9869 0ebd abde 63bb
00000030: 2768 62bb 03fd 4abd 436f bbbc e5aa 04bb
00000040: d3a5 a93d d4ab 1c3d 94a7 2bbd 158b 9fbd
00000050: de90 3e3d 598f 013d 3a36 0bbd 0691 6b3d
00000060: 0ff7 cb3c 4121 cf3c 74ea 893d 3147 48bc
00000070: e35a 4d3d e6c8 adbd e673 7cbd 4c67 b3bd
00000080: da21 77bd 6153 6d3d 2d3c 48bd 2525 8e3d
00000090: 1667 933d dc46 39bc b729 c8bd 22c5 28bc
000000a0: 85b8 95bc 0b50 0ebe 6134 823d b9dc 123c
000000b0: 0545 3dbc 143a 523b 4953 58bd b139 673d
000000c0: def8 92bb 6d3d a5bc a544 03bd 8415 68bd
000000d0: f82f 92bd 7055 823d d9c4 f93c 45f5 99bc
000000e0: 3d4b b43c bca9 893a d04c 06bb f9e9 42bd
000000f0: fc7e 453d 19fa c0bd 9777 723b 46e3 00bd
00000100: f98a 083d 1f9d 81bd f83b 89bd e219 a23c
00000110: 2863 bebc 9a41 22bc a288 94bd 3137 0fbd
00000120: dd6d 963b f4e5 debc 7d32 d4bc 255d 86bb
00000130: 1cf2 0d3d 7140 2ebc 66e1 2cbc 8545 d0bc
00000140: 7dab ff3c 3457 cf3c 86ec e2ba f264 603d
00000150: 969a 7bbb e227 af3d 9598 8d3d ee89 cc3d
00000160: cd62 4b3d 8190 da3c b014 33bd 4f09 b9bc
00000170: a575 e23c 7f7b 853d 6961 eabc 405c 4a3d
00000180: 8664 c7bc b512 57bd 2f65 1dbd 5cac 67bd
00000190: 8b6f a63b 8af0 073d b3ba e03c 1c70 97bb
000001a0: 71d3 943d 7d07 003d f86d 613d 1786 803d
000001b0: 4340 d5bd ca5b 1dbd b562 8ebd 7b37 99bd
000001c0: 9fca 93bc 6e98 0abd ded4 90bd 82e7 a9bc
000001d0: 8e34 8dbc c1db 643d 18b4 0b3e 1fdb e83d
000001e0: 428b ff3d a925 d33d d358 463c 170a 803d
000001f0: d4cb cd3d edbf 673c b51b d33c ebb0 183d
00000200: 4f48 8e3d 430a f13c 2f9e 4ebd 173e 8f3d
00000210: f9a4 44bd 5f1b 8e3d bda5 9c3c 4c4f 143c
00000220: 7980 433d 46c4 15bd f913 b03d 5287 df3c
00000230: d259 d33d 7822 c53d 5aae 763b 9fad 943d
00000240: ade6 833d 84de 833c 878c a43d 4990 49bd
00000250: 6c35 fcbc 528a 59bd 87e2 36bd b424 3cbb
00000260: 885d 28bd 81cc b93d d019 06bd 5fe4 e63c
00000270: 6d15 803d 31eb 0f3d 4be7 a33d ff7b 13bd
00000280: c9f8 6bbd 8b4b 3d3d 778b babc 7cce 0d3d
00000290: 6eab b43b 6f3d c13c 2650 e23c 9843 2c3d
000002a0: ddf0 59bd 1df5 333d 6285 8abd f4b7 c8bb
000002b0: f7f4 35bd de4f 733c 9188 973c 6df1 ba3d
000002c0: b6f2 eabc aa24 8abb 13e5 ad3d d4be 7a3c
000002d0: 228d 0f3d 7bc1 c7bc d668 153e 068e 0abc
000002e0: c681 913d 542c c83c 52f8 7c3d e9a9 c23d
000002f0: 28f7 cf3d 4a8d 3cbc 6283 923d 9d4a af3d
00000300: fd54 3bbd 84c7 0abd 1885 5f3c b6aa d5bc
00000310: b71a 443d 8dae cc3c 84bc 7a3c 2cd0 82bd
00000320: 9636 babd b023 8d3d fed2 6b3d cf8a d53c
00000330: 59f1 073d f3f3 afbc dedd 0d3d 4ce6 0cbd
00000340: 0008 ebbc 78b1 a93c ab3f a13d ecda 98bd
00000350: 0fe8 9b3d a55d 3b3d f041 833d c525 5c3d
00000360: 5fd4 36bd a546 0abc 83ad e6bd 4c08 103b
00000370: 7a1c b2bd 5a57 dabc 8e59 47bd 0f20 cebc
00000380: 148a d73c 331e 653d 643d 0b3c a294 153c
00000390: 8ab2 993d 1806 7bbd 2d81 a03d 99a7 f7bc
000003a0: b092 9c3d 6137 6bbd 9b1e 0ebb b99a b6bc
000003b0: 9a63 eb3c a816 9f3d 1dff 8ebd 6d23 833d
000003c0: 5f13 52bd b4d9 56bb feb0 923b a000 c73c
000003d0: 0634 be3d 9803 d73c 2844 713c 3b21 50bd
000003e0: 87ea 3b3d 476f 1e3d 92b6 633d cf0b 8abb
000003f0: 392b a03c 7558 5a3c 8295 5b3d 3e25 2bbd

enc_conv1.2.bias f4 [16]
-0.030629767 0.07242615 0.04922953 0.044729404 -0.002323559 -0.041195463 0.03528734 -0.059681136
0.0671151 -0.022875315 0.09083122 -0.009697323 0.07459674 -0.018228263 0.0049093505 -0.067285694
00000000: 47eb fabc 2954 943d e7a4 493d 2e36 373d
00000010: da46 18bb 93bc 28bd 7589 103d 3574 74bd
00000020: a473 893d 0365 bbbc b805 ba3d 85e1 1ebc
00000030: 2dc6 983d 7053 95bc 9ede a03b 15cd 89bd

enc_conv2.0.weight f4 [32, 16, 3, 3]
0.04763829 0.07594929 -0.0044058636 -0.05993418 0.01473812 -0.043044567 0.06684076 0.02677121
0.009185068 0.060863025 -0.05612458 -0.01785642 -0.017187566 -0.018728517 0.044853397 -0.080917105
-0.03498172 -0.0071559176 0.063062586 -0.07094034 -0.0007497072 -0.06457886 -0.025808811 -0.042365216
0.03667847 -0.06804909 0.023037307 -0.044925682 -0.03914572 0.05207268 -0.013275392 0.020718485
-0.078297794 0.080288954 0.06710268 -0.043842524 0.015696436 -0.04738786 -0.054987006 0.029291816
0.006232977 -0.018624932 -0.032332808 -0.0052048564 -0.06054523 -0.06512164 0.07086722 0.06653055
-0.059203397 0.019590676 -0.010188401 0.03119383 -0.040608477 0.07521894 -0.027152687 -0.045544885
-0.023019582 0.075111784 -0.070985965 -0.051576983 0.011325933 0.0027384758 -0.020387478 -0.038908184
-0.0036114454 -0.0063395426 0.025483847 -0.06393425 0.06603069 -0.061234534 -0.056692254 0.08206607
0.0025408491 0.03374725 0.055734523 -0.022558838 -0.059700727 0.05332651 -0.008267768 0.035055734
-0.07690131 0.017472275 0.026846848 0.037739225 -0.031005263 -0.0460594 0.07077644 0.033123396
-0.058647793 0.064382486 0.009524532 0.049112536 -0.02000133 0.023745112 -0.0673564 -0.025844067
-0.066221975 0.081142895 -0.05479967 0.061061762 -0.044335417 0.004774511 0.0778017 0.034970157
-0.03556481 -0.011868417 -0.05119606 0.016497917 -0.054869376 0.010615103 0.06255577 -0.061953753
-0.07517752 0.004345767 0.03135106 0.018179707 0.02657982 -0.054130554 -0.055926375 -0.024916075
-0.0102165565 0.04230792 -0.034926903 0.008920543 0.027356215 -0.016639888 0.070664845 -0.04252582
-0.06295572 0.017726265 -0.012429424 0.06723998 -0.054425478 -0.059202813 -0.008817285 0.07464493
-0.03761549 -0.07009154 0.06440925 -0.010632277 -0.02006083 -0.05180087 0.06954118 -0.02137522
-0.0063128895 0.05647415 0.11223208 0.061263133 0.08976805 0.058303315 0.120761424 0.040484928
0.062661245 0.08772951 0.050703816 -0.011102635 0.06655234 0.011822579 -0.069167316 -0.00960409
0.022114316 0.045717742 -0.013881488 0.076790445 0.06561665 0.08240521 0.012439539 -0.028966734
0.044004202 0.03345494 0.06392782 0.016603552 -0.050203476 -0.037605997 -0.049953412 0.017935751
-0.054712415 -0.04543489 0.025798779 0.00010063871 -0.06009414 -0.0068648183 -0.03953637 -0.05624073
0.059257586 -0.06065659 0.07874716 0.03284506 -0.05168901 -0.026399476 -0.030687537 -0.055871014
0.028042832 0.10018625 0.06343818 0.071036346 0.07461195 0.10415669 -0.10282258 -0.0055406746
-0.09795224 -0.10269843 -0.14887108 -0.118191 -0.13816503 -0.055998676 -0.17390946 0.075662404
0.035254523 0.079984926 0.001867925 0.015515322 -0.016390268 0.058312476 0.057008065 0.064780906
0.020997692 -0.06391706 -0.012414923 0.024656437 -0.0024492834 -0.06516746 0.09653806 -0.024222499
0.00021516334 0.07454126 0.034357466 0.03562918 -0.002891159 0.101714365 -0.06462122 -0.0004949773
0.09443715 -0.048276655 0.01889493 0.023840759 0.0196346 0.10516203 0.05699506 -0.04182606
-0.045718417 0.07294873 0.059664983 0.006017796 0.060747135 0.06920518 -0.011315138 -0.026824307
0.09122326 -0.023284415 0.020261325 0.08816211 0.054081142 0.07608743 -0.08077608 -0.058854643
00000000: 5e20 433d 4d8b 9b3d 105f 90bb 8b7d 75bd
00000010: 2878 713c 804f 30bd cfe3 883d 4c4f db3c
00000020: f87c 163c 824b 793d e3e2 65bd a047 92bc
00000030: f0cc 8cbc 8c6c 99bc 32b8 373d deb7 a5bd
00000040: fe48 0fbd 307c eabb f526 813d 2b49 91bd
00000050: 0088 44ba ec41 84bd 006d d3bc 2687 2dbd
00000060: 2a3c 163d 525d 8bbd bcb8 bc3c fe03 38bd
00000070: 4357 20bd 2a4a 553d 0881 59bc d0b9 a93c
00000080: 985a a0bd 896e a43d 216d 893d 3894 33bd
00000090: d095 803c c619 42bd 0e3a 61bd 64f5 ef3c
000000a0: 003e cc3b 5093 98bc 686f 04bd 808d aabb
000000b0: 46fe 77bd 7f5e 85bd d522 913d 2b41 883d
000000c0: 437f 72bd a07c a03c 40ed 26bc 348a ff3c
000000d0: 1355 26bd 630c 9a3d 506f debc 468d 3abd
000000e0: 9093 bcbc 35d4 993d 1761 91bd 6342 53bd
000000f0: 6890 393c 0078 333b a403 a7bc 305e 1fbd
00000100: 00ae 6cbb f0bb cfbb 80c3 d03c f6ef 82bd
00000110: 193b 873d 10d1 7abd 2336 68bd 4112 a83d
00000120: 6084 263b 8e3a 0a3d e249 643d 50cd b8bc
00000130: c088 74bd e66c 5a3d 8875 07bc 9a96 0f3d
00000140: 6f7e 9dbd 0422 8f3c eced db3c 7294 1a3d
00000150: c0fe fdbc c8a8 3cbd 3df3 903d 66ac 073d
00000160: ab38 70bd f7da 833d c80c 1c3c 3a2a 493d
00000170: d4d9 a3bc 1c85 c23c 27f2 89bd f0b6 d3bc
00000180: 639f 87bd 3f2e a63d 9e75 60bd e61b 7a3d
00000190: 0e99 35bd 8073 9c3b 7f56 9f3d de3c 0f3d
000001a0: 68ac 11bd c073 42bc f6b2 51bd a426 873c
000001b0: b6be 60bd f8ea 2d3c 3d1d 803d 38c3 7dbd
000001c0: acf6 99bd f066 8e3b f869 003d 9ced 943c
000001d0: ecbd d93c 00b8 5dbd 0e13 65bd cc1c ccbc
000001e0: 5863 27bc 124b 2d3d 830f 0fbd 7827 123c
000001f0: 241a e03c 6050 88bc bbb8 903d 8e2f 2ebd
00000200: eeee 80bd ac36 913c c8a4 4bbc 1db5 893d
00000210: 40ed 5ebd a67e 72bd 6076 10bc 71df 983d
00000220: b312 1abd 278c 8fbd ffe8 833d 0033 2ebc
00000230: 9c56 a4bc 262d 54bd 9b6b 8e3d 161b afbc
00000240: 5bdc cebb 7051 673d efd9 e53d 0def 7a3d
00000250: 50d8 b73d 75cf 6e3d c451 f73d 86d3 253d
00000260: 8a54 803d 88ab b33d ceae 4f3d d4e7 35bc
00000270: 984c 883d 7eb3 413c 98a7 8dbd 795a 1dbc
00000280: 1529 b53c 8742 3b3d 2e6f 63bc 4f44 9d3d
00000290: 0662 863d 10c4 a83d 35cf 4b3c a54b edbc
000002a0: c03d 343d 0c08 093d 97ec 823d 2c04 883c
000002b0: 29a2 4dbd bf08 1abd f39b 4cbd ffed 923c
000002c0: 201a 60bd ef19 3abd f657 d33c ff0d d338
000002d0: 4625 76bd 45f2 e0bb e4f0 21bd ae5c 66bd
000002e0: 15b8 723d 0b73 78bd 3146 a13d 8b88 063d
000002f0: dbb7 53bd b743 d8bc 6e64 fbbc 01d9 64bd
00000300: 15ba e53c 732e cd3d e0eb 813d 817b 913d
00000310: 26ce 983d 1a50 d53d a594 d2bd 8c8e b5bb
00000320: 2f9b c8bd 8e53 d2bd a971 18be 1f0e f2bd
00000330: 227b 0dbe de5e 65bd 5215 32be e4f4 9a3d
00000340: 0c67 103d 23cf a33d 2ad5 f43a fa33 7e3c
00000350: e244 86bc 10d9 6e3d 4a81 693d daab 843d
00000360: 5a03 ac3c f3e6 82bd f667 4bbc 4cfc c93c
00000370: 2884 20bb 8476 85bd bfb5 c53d 436e c6bc
00000380: 789d 6139 17a9 983d 6aba 0c3d e7ef 113d
00000390: 9979 3dbb 9f4f d03d 2158 84bd 5dc1 01ba
000003a0: 4468 c13d bebd 45bd 8ac9 9a3c b24d c33c
000003b0: bed8 a03c 315f d73d a773 693d cd51 2bbd
000003c0: 3c43 3bbd 2566 953d 4563 743d ef30 c53b
000003d0: fdd1 783d 72bb 8d3d 2163 39bc a6be dbbc
000003e0: 43d3 ba3d f5be bebc 14fb a53c 568e b43d
000003f0: 3084 5d3d bad3 9b3d ee6d a5bd 9111 71bd

enc_conv2.0.bias f4 [32]
-0.075371586 -0.035329252 0.08016096 -0.06528082 0.09211844 0.0054432303 0.07760684 -0.039845575
-0.005741173 -0.06252162 0.02181214 0.041846756 0.0025907902 -0.03756867 0.00833819 -0.014550473
0.04863951 0.08465665 0.08423568 0.03801949 0.052986834 -0.055083945 0.07618892 -0.0060323314
0.057581984 -0.04847443 0.09134588 0.07705111 -0.025466392 0.0880347 0.007639844 0.07507147
00000000: 6b5c 9abd 68b5 10bd 6e2b a43d f3b1 85bd
00000010: 98a8 bc3d 205d b23b 56f0 9e3d 1d35 23bd
00000020: 7320 bcbb 560b 80bd 5faf b23c 8167 2b3d
00000030: 3fca 293b 9be1 19bd e79c 083c 1b65 6ebc
00000040: 393a 473d 7760 ad3d c283 ac3d 53ba 1b3d
00000050: b908 593d b49f 61bd f008 9c3d ddaa c5bb
00000060: 16db 6b3d 208d 46bd 8c13 bb3d f9cc 9d3d
00000070: e59e d0bc 894b b43d a857 fa3b 12bf 993d

enc_conv2.2.weight f4 [32, 32, 3, 3]
0.031190012 -0.013619479 0.031720992 0.014214281 0.057095136 0.027826186 0.056453492 -0.032508012
-0.0328399 -0.052613996 0.04579543 -0.0804874 0.03537343 -0.04166633 -0.061542597 -0.055624075
0.041546058 0.015613698 -0.009881223 -0.010275677 3.589037e-05 0.019610923 -0.024743928 -0.042670395
0.006520186 0.033096675 -0.0044596945 0.033762846 0.05004872 0.05160294 0.035599846 0.056301262
-0.017253276 -0.04531479 -0.032214627 0.05786511 -0.008702178 -0.02137231 -0.05372214 0.012613497
0.038983606 -0.035977583 0.021168774 0.064551905 -0.014237595 0.052692614 -0.039340857 -0.059931014
0.0424187 0.035885494 -0.048719775 0.008018971 0.05253471 -0.02873379 0.0064408304 -0.011234753
-0.028604044 -0.0144919185 0.03027528 0.01706838 0.0046861228 0.003300815 -0.07595622 0.0032538697
-0.026567591 0.02165177 0.030442767 -0.029327465 0.0076343305 -0.026121335 -0.0060607623 0.036877647
-0.0016403197 -0.0017354897 -0.05574552 0.06921372 0.07082696 -0.04353972 0.055163506 -0.025833301
-0.04196785 0.022080183 0.026459817 -0.027803855 -0.0093177995 -0.025513384 -0.0567767 0.07383577
-0.060805343 -0.043888845 0.09859857 0.043596387 0.045990355 0.051763423 0.08073122 -0.034079824
0.0070939036 0.06376888 -0.001950433 0.029146986 -0.054988325 -0.052278474 0.02106956 0.045054812
-0.017792568 0.04289712 0.0031154398 -0.03241211 0.057511065 0.057215314 0.016007278 -0.03273336
0.038435392 -0.022978112 -0.054059986 -0.044951305 0.05793602 -0.011305126 0.014737454 0.025027808
0.017201405 0.053624682 0.020691315 0.024749296 0.023292556 -0.019238614 0.019815613 0.017582878
-0.05067714 -0.014209955 -0.009221701 0.006518976 0.03427392 -0.019929016 -0.07801995 -0.08794955
0.012738767 -0.06849364 -0.059736226 -0.005794086 0.03554349 -0.025824198 -0.014403614 -0.019157788
-0.005594123 -0.010439798 -0.022805165 0.061883565 0.06864468 -0.04123873 0.008185154 0.008271979
-0.07323267 -0.028976992 -0.028593402 0.014178258 0.05255307 0.0678668 0.021169897 0.10004169
0.069740355 0.0013940294 -0.011998766 -0.025458949 -0.06907675 -0.029776627 0.06873089 -0.048446003
0.08249609 0.016743973 -0.059770495 0.06006896 0.015699092 0.015061286 -0.02489307 -0.042658783
-0.020478629 0.020899244 0.057787664 0.005034057 -0.0011598363 0.03154957 -0.038486503 -0.008825129
0.034057118 -0.04453954 0.0725745 0.027386798 -0.027285583 0.031069148 0.069316 -0.018000579
0.14562124 0.110412 0.00026264027 0.08051178 0.09110411 0.0054410435 0.05890663 0.038887694
0.008741102 0.09928621 0.06326622 -0.030408548 -0.0065114633 0.0666083 -0.055263124 0.043861274
-0.04331413 -0.011422992 0.012937132 0.020035693 -0.028506553 0.050569475 0.057346273 -0.023130229
0.027651373 -0.059929043 -0.0813019 0.078762986 -0.00760768 -0.031203883 0.044186566 -0.025825856
-0.0032342966 -0.06922721 0.03854591 -0.0263927 0.041044068 -0.0016740751 -0.07724949 0.044495516
0.050894756 -0.015217265 -0.019164037 -0.039242335 -0.00087855005 0.061614536 0.04527562 0.029899284
0.0736484 0.037669577 -0.074140154 0.06631395 0.034270592 -0.08035705 0.01688455 0.01721727
-0.05645028 0.047024466 0.09634803 -0.05539594 0.09114487 0.15222028 -0.02537622 0.027198188
00000000: 3282 ff3c 3c24 5fbc dfed 013d 04e3 683c
00000010: 97dc 693d bef3 e33c c73b 673d 1f27 05bd
00000020: 2283 06bd c681 57bd fd93 3b3d 94d6 a4bd
00000030: bbe3 103d 50aa 2abd 1714 7cbd 12d6 63bd
00000040: 332c 2a3d 99d0 7f3c dae4 21bc 505b 28bc
00000050: fe88 1638 16a7 a03c c7b3 cabc 27c7 2ebd
00000060: 49a7 d53b 6190 073d a122 92bb e94a 0a3d
00000070: e3ff 4c3d 9b5d 533d 25d1 113d 279c 663d
00000080: be56 8dbc 009c 39bd 7cf3 03bd f703 6d3d
00000090: 9493 0ebc fc14 afbc bf0b 5cbd d7a8 4e3c
000000a0: 46ad 1f3d 3b5d 13bd 236a ad3c ca33 843d
000000b0: cd44 69bc 36d4 573d e123 21bd 397a 75bd
000000c0: 3bbf 2d3d abfc 123d 638e 47bd 0162 033c
000000d0: a32e 573d 2063 ebbc 9a0d d33b f811 38bc
000000e0: 0753 eabc 836f 6dbc dd03 f83c fdd2 8b3c
000000f0: 0c8e 993b 7c52 583b ef8e 9bbd e03e 553b
00000100: 47a4 d9bc 0e5f b13c 1c63 f93c 2740 f0bc
00000110: 6829 fa3b 69fc d5bc 5c99 c6bb 040d 173d
00000120: ffff d6ba 5f79 e3ba 6a55 64bd ecbf 8d3d
00000130: ba0d 913d b556 32bd 21f3 613d 5ca0 d3bc
00000140: 7be6 2bbd 80e1 b43c 42c2 d83c e9c4 e3bc
00000150: afa9 18bc 7201 d1bc af8e 68bd 3537 973d
00000160: 060f 79bd cac4 33bd 0cee c93d 2092 323d
00000170: 6260 3c3d e205 543d 6956 a53d 4997 0bbd
00000180: fa73 e83b 4299 823d aca5 ffba a9c5 ee3c
00000190: 703b 61bd f421 56bd 129a ac3c 658b 383d
000001a0: b8c1 91bc e4b4 2f3d 682c 4c3b 90c2 04bd
000001b0: b990 6b3d 9b5a 6a3d b221 833c 6a13 06bd
000001c0: 6e6e 1d3d 983c bcbc 016e 5dbd dc1e 38bd
000001d0: 524e 6d3d 2339 39bc 5d75 713c 1e07 cd3c
000001e0: f6e9 8c3c 8ea5 5b3d d580 a93c 09bf ca3c
000001f0: 08d0 be3c 4c9a 9dbc 5a54 a23c f809 903c
00000200: d592 4fbd dfd0 68bc 9e16 17bc 229d d53b
00000210: cf62 0c3d 2d42 a3bc ecc8 9fbd e51e b4bd
00000220: 43b6 503c 6546 8cbd f9ad 74bd 51dc bdbb
00000230: 0d96 113d 458d d3bc 23fd 6bbc cbf0 9cbc
00000240: e84e b7bb b00b 2bbc e6d1 babc 9f79 7d3d
00000250: 9595 8c3d f1e9 28bd 061b 063c 3287 073c
00000260: 03fb 95bd 2861 edbc b63c eabc ed4b 683c
00000270: e341 573d c0fd 8a3d 7e6c ad3c a8e2 cc3d
00000280: 08d4 8e3d ddb7 b63a 7996 44bc 498f d0bc
00000290: 1c78 8dbd 1dee f3bc c8c2 8c3d 516f 46bd
000002a0: b6f3 a83d a82a 893c e8d1 74bd df0a 763d
000002b0: 629b 803c 9dc3 763c 8dec cbbc faba 2ebd
000002c0: ccc2 a7bc e434 ab3c c2b2 6c3d bbf4 a43b
000002d0: a605 98ba 1f3a 013d 06a4 1dbd 4697 10bc
000002e0: 7a7f 0b3d 186f 36bd f1a1 943d 475a e03c
000002f0: 0486 dfbc ba84 fe3c 8cf5 8d3d f375 93bc
00000300: bc1d 153e b01f e23d fbb2 8939 5ce3 a43d
00000310: cb94 ba3d c84a b23b 1448 713d b448 1f3d
00000320: d736 0f3c 9256 cb3d b891 813d 591b f9bc
00000330: 1d5e d5bb ef69 883d 965b 62bd e1a7 333d
00000340: 286a 31bd 8027 3bbc 44f6 533c e521 a43c
00000350: 9386 e9bc f021 4f3d ede3 6a3d 9b7b bdbc
00000360: 2285 e23c 2878 75bd 9c81 a6bd 7d4e a13d
00000370: d849 f9bb 499f ffbc f9fc 343d bf90 d3bc
00000380: 7ef6 53bb ffc6 8dbd 51e2 1d3d 8135 d8bc
00000390: d31d 283d a46c dbba fb34 9ebd ee40 363d
000003a0: 0577 503d d651 79bc e6fd 9cbc 92bc 20bd
000003b0: 7f4e 66ba 865f 7c3d ee72 393d 58ef f43c
000003c0: f9d4 963d 6a4b 1a3d cbd6 97bd 9ccf 873d
000003d0: 525f 0c3d 3d92 a4bd 7851 8a3c 3b0b 8d3c
000003e0: 6938 67bd ba9c 403d 1e52 c53d dae6 62bd
000003f0: 29aa ba3d a2df 1b3e cae1 cfbc bcce de3c

enc_conv2.2.bias f4 [32]
-0.03336955 -0.045902837 0.058210973 0.06700527 0.06351459 -0.007992653 0.041668355 0.0061239162
0.041897845 0.05733928 -0.033412114 0.042720076 0.002355293 0.06434346 0.049731545 0.021954646
0.033531968 0.061323576 0.05849961 -0.000677425 0.03389357 -0.0043991087 0.022447124 0.04744706
0.026181534 0.06875622 0.0031154272 0.028666582 0.055353597 0.0063947937 0.03613755 -0.035866305
00000000: 82ae 08bd 9d04 3cbd a16e 6e3d 0f3a 893d
00000010: f013 823d 9ef3 02bc 70ac 2a3d 22ab c83b
00000020: 139d 2b3d 98dc 6a3d 24db 08bd 3ffb 2e3d
00000030: 425b 1a3b 81c6 833d 4eb3 4b3d 3bda b33c
00000040: d158 093d 6e2e 7b3d 499d 6f3d 3995 31ba
00000050: fcd3 0a3d 6626 90bb 08e3 b73c d957 423d
00000060: a87a d63c 10d0 8c3d 322c 4c3b 2ed6 ea3c
00000070: 74ba 623d 6b8b d13b f804 143d 8ce8 12bd

bottleneck.0.weight f4 [64, 32, 3, 3]
0.02353221 0.046654385 0.08406977 -0.04183399 0.09207774 0.13939689 -0.0091482755 0.08522655
0.09760881 0.04176636 0.042150427 -0.032183267 0.0329278 -0.03346569 0.0054336307 0.027468583
0.0016659847 0.02802043 0.019133246 0.054853417 0.005789089 0.06601137 -0.006611224 0.06645223
-0.0272436 0.06341546 -0.037454627 0.005210227 0.06830613 -0.045866698 -0.044840198 -0.0017895241
0.057118867 0.022832958 0.014921645 0.049077295 0.00073427265 -0.0307553 -0.012088124 -0.035531756
0.024115775 0.046225622 0.02891655 0.045591313 0.014755069 0.065098934 -0.03499384 0.046481784
0.06316022 -0.027335294 0.02283878 -0.017949687 -0.03632624 0.013101063 0.06364311 0.053320978
-0.006913893 0.05335949 0.022522615 0.025350764 0.038085375 0.0162288 0.050214175 0.07244429
0.10311969 0.10686252 0.0788502 0.08671341 0.08198059 0.041500848 0.06505078 0.0099805435
0.020186743 0.004338289 -0.0012734497 -0.049357947 0.05275672 -0.035720073 0.010653603 -0.030614136
-0.051671002 0.016603531 0.0032745409 -0.0073052114 0.04194642 -0.036060642 -0.019325254 -0.0500227
-0.0053012543 0.023652779 0.00073420274 -0.08649721 0.027329449 -0.07257923 -0.058698315 -0.04953481
-0.0018637469 -0.06868728 -0.03558093 -0.00893096 0.047903754 -0.03089184 0.018900352 0.016493576
0.04266856 0.04533655 -0.040554896 -0.037971728 -0.0016541727 0.042768437 -0.017316503 -0.006418242
0.06990013 0.07322844 0.083117686 0.06318666 0.064590864 -0.0082180565 -0.010661338 0.054401197
-0.00616029 -0.008254515 -0.0064395755 0.04718682 0.020746885 -0.036744304 0.040142205 -0.010258636
0.014211007 -0.035355095 0.0025703614 0.05827644 0.05319702 0.018002361 -0.016239302 0.04858066
0.0059597883 -0.009467393 0.028961886 0.02370272 0.06541253 -0.024966206 0.006119484 -0.040694624
-0.011143765 -0.029959945 0.0075980164 -0.0021650959 0.024591397 0.032525912 -0.022868253 0.04900485
0.052137382 0.05320173 0.05268416 0.052061822 0.09475631 -0.0037501128 0.0022807454 0.056813832
0.02619002 -0.005467888 0.04025921 0.05105829 0.06607112 0.021477614 0.061158236 -0.011500786
-0.009829324 0.054216232 0.010137614 0.01614855 -0.04840494 -0.06427881 -0.0038384304 0.02468029
0.007831236 -0.013932742 -0.0025171945 0.011830864 0.03334463 0.0029006626 -0.014633355 0.100696534
0.11652812 0.040261142 0.075612865 0.112395965 0.071888104 0.0270172 -0.04096684 0.009086398
-0.034871634 -0.02685404 0.035564188 -0.04846786 0.035299823 0.043527313 -0.048552334 0.046788946
0.05694934 0.00021887913 0.0466237 0.021388752 -0.043325342 -0.020561084 -0.051026676 0.003369898
0.06133131 0.02051559 0.021324258 -0.015778022 0.020381808 -0.03362857 0.023575112 -0.032697912
-0.044504244 0.030308524 -0.0363916 0.0502918 0.05900697 -0.01971118 -0.035180118 -0.007601106
0.019302955 -0.0046673995 -0.0060365177 0.05433971 -0.023962492 -0.033705518 -0.032383848 0.03898443
0.0046915184 0.022174278 -0.0003522281 0.02799365 0.036423218 0.021843951 0.04701763 -0.0296102
-0.03155586 0.06115733 0.03470932 -0.029924871 0.04321066 -0.0021037478 -0.020644205 -0.029504972
0.06781787 0.0612154 0.045417253 -0.03899391 0.039705724 0.033656377 -0.032201517 -0.018346442
00000000: 9fc6 c03c ab18 3f3d c62c ac3d 1e5a 2bbd
00000010: 4193 bc3d 0fbe 0e3e a6e2 15bc 428b ae3d
00000020: 21e7 c73d 3413 2b3d eda5 2c3d 9ad2 03bd
00000030: 4ddf 063d 5213 09bd 990c b23b cb05 e13c
00000040: 2c5d da3a 1a8b e53c 53bd 9c3c faad 603d
00000050: 66b2 bd3b f830 873d f7a2 d8bb 1b18 883d
00000060: f82d dfbc f7df 813d 066a 19bd 8dba aa3b
00000070: 16e4 8b3d b8de 3bbd 5baa 37bd 778e eaba
00000080: 79f5 693d 2f0c bb3c ea79 743c 4605 493d
00000090: 347c 403a 8af2 fbbc 440d 46bc bf89 11bd
000000a0: 728e c53c 1457 3d3d 67e2 ec3c f5bd 3a3d
000000b0: 3fbf 713c 9752 853d b355 0fbd af63 3e3d
000000c0: 255a 813d 44ee dfbc 6518 bb3c 390b 93bc
000000d0: d3ca 14bd d7a5 563c 5257 823d 1967 5a3d
000000e0: f08d e2bb 7b8f 5a3d 5981 b83c 68ac cf3c
000000f0: 69ff 1b3d 43f2 843c 61ad 4d3d ac5d 943d
00000100: 6b30 d33d bdda da3d 377c a13d cd96 b13d
00000110: 71e5 a73d cbfc 293d 5839 853d 6f85 233c
00000120: ab5e a53c 3528 8e3b e2e9 a6ba 8f2b 4abd
00000130: 6e17 583d 364f 12bd 738c 2e3c 7fca fabc
00000140: f9a4 53bd 2104 883c ae99 563b 8e60 efbb
00000150: 02d0 2b3d 53b4 13bd ff4f 9ebc 9ae4 4cbd
00000160: 25b6 adbb 79c3 c13c 8377 403a 7325 b1bd
00000170: 02e2 df3c 6ba4 94bd a56d 70bd 03e5 4abd
00000180: f848 f4ba ebab 8cbd 4fbd 11bd 2953 12bc
00000190: ba36 443d e210 fdbc e9d4 9a3c 891d 873c
000001a0: 3ac5 2e3d d1b2 393d e41c 26bd 3e88 1bbd
000001b0: d3d0 d8ba f52d 2f3d 57db 8dbc 1e50 d2bb
000001c0: cd27 8f3d cbf8 953d 9b39 aa3d 0268 813d
000001d0: 3748 843d 07a5 06bc e5ac 2ebc cad3 5e3d
000001e0: 42dc c9bb f23d 07bc 1303 d3bb f846 413d
000001f0: 5ff5 a93c 3281 16bd 276c 243d d713 28bc
00000200: 49d5 683c 81d0 10bd 8273 283b 47b3 6e3d
00000210: 1ee5 593d b079 933c 4908 85bc 84fc 463d
00000220: 544a c33b 201d 1bbc 7a41 ed3c 352c c23c
00000230: 01f7 853d ee85 ccbc f485 c83b 68af 26bd
00000240: 5794 36bc 8f6e f5bc c8f8 f83b 48e4 0dbb
00000250: e673 c93c e439 053d 3456 bbbc 4fb9 483d
00000260: 028e 553d 0fea 593d 59cb 573d c73e 553d
00000270: 990f c23d 74c4 75bb 8f78 153b 9fb5 683d
00000280: 748c d63c f82b b3bb d7e6 243d 7f22 513d
00000290: 4c50 873d d2f1 af3c 0f81 7a3d cb6d 3cbc
000002a0: 2c0b 21bc d711 5e3d 3c18 263c f749 843c
000002b0: 4244 46bd 9ca4 83bd 2d8e 7bbb 522e ca3c
000002c0: 964e 003c 2846 64bc 84f7 24bb 3dd6 413c
000002d0: 6194 083d 0b19 3e3b bdc0 6fbc fc39 ce3d
000002e0: 4ca6 ee3d dee8 243d ebda 9a3d db2f e63d
000002f0: 123a 933d 2d53 dd3c d8cc 27bd 1edf 143c
00000300: 8fd5 0ebd 01fd dbbc c1ab 113d 3c86 46bd
00000310: 8c96 103d b249 323d d0de 46bd c4a5 3f3d
00000320: b643 693d eb82 6539 7ef8 3e3d 7737 af3c
00000330: ea75 31bd b86f a8bc 5901 51bd 82d9 5c3b
00000340: 8a36 7b3d 5010 a83c 36b0 ae3c e940 81bc
00000350: c0f7 a63c 1dbe 09bd 9820 c13c 3fee 05bd
00000360: 154a 36bd 9549 f83c 5c0f 15bd c6fe 4d3d
00000370: 4bb1 713d 5779 a1bc 0719 10bd b312 f9bb
00000380: 3b21 9e3c fcf0 98bb fbcd c5bb 5193 5e3d
00000390: fd4c c4bc cc0e 0abd eda4 04bd 23ae 1f3d
000003a0: 4fbb 993b d5a6 b53c 41ab b8b9 f052 e53c
000003b0: 8330 153d 16f2 b23c 8f95 403d 1791 f2bc
000003c0: b840 01bd 1c80 7a3d 5c2b 0e3d 0125 f5bc
000003d0: a9fd 303d 08df 09bb 091e a9bc 69b4 f1bc
000003e0: 18e4 8a3d 00bd 7a3d 7107 3a3d 14b8 1fbd
000003f0: 78a2 223d 45db 093d bde5 03bd 474b 96bc

bottleneck.0.bias f4 [64]
0.016296072 0.050975617 0.019054864 -0.009372358 0.022631455 -0.033104263 -0.034416065 -0.026040623
0.07071231 0.01633031 -0.04346991 0.05520854 0.008256141 -0.0017152604 -0.012120696 -0.0030861641
0.020892493 0.047222663 0.05583784 0.028741691 0.051975656 -0.008762211 -0.008806396 -0.048349075
-0.0072919615 -0.034352098 -0.040308412 -0.0415936 0.04305022 -0.0040453635 0.046026148 -0.028405033
-0.030398618 0.042220414 -0.02142734 0.013869788 -0.0289411 -0.036002636 0.06384653 -0.057266638
0.035094433 -0.007126273 -0.008241913 -0.028061222 0.0038703436 0.00476107 0.0133467205 -0.02750999
0.008596384 -0.0033332112 -0.006397302 -0.008138311 0.016845714 -0.05036945 0.06639666 0.030625587
0.03011842 0.061907463 0.037992228 -0.024541635 -0.013002239 0.024525894 0.05195907 0.03902195
00000000: 577f 853c cfcb 503d f218 9c3c 858e 19bc
00000010: 9a65 b93c 5698 07bd dcf7 0cbd 2553 d5bc
00000020: 9ed1 903d 24c7 853c 810d 32bd 5a22 623d
00000030: c444 073c 97d2 e0ba e295 46bc 3e41 4abb
00000040: bc26 ab3c 8d6c 413d 38b6 643d b273 eb3c
00000050: 6de4 543d 608f 0fbc b448 10bc ae09 46bd
00000060: 68f1 eebb c9b4 0cbd 6f1a 25bd 0d5e 2abd
00000070: 6d55 303d f88e 84bb ea85 3c3d acb1 e8bc
00000080: 8606 f9bc 50ef 2c3d 6488 afbc 1b3e 633c
00000090: e315 edbc 8077 13bd f8c1 823d 6c90 6abd
000000a0: 2ebf 0f3d 8383 e9bb 1709 07bc a6e0 e5bc
000000b0: 97a5 7d3b c002 9c3b 34ac 5a3c a15c e1bc
000000c0: d9d7 0c3c 0172 5abb 75a0 d1bb 8d56 05bc
000000d0: 0600 8a3c 3250 4ebd f9fa 873d 83e2 fa3c
000000e0: e8ba f63c ae92 7d3d bd9d 1b3d 8a0b c9bc
000000f0: 5807 55bc 87ea c83c 09d3 543d 7bd5 1f3d

bottleneck.2.weight f4 [64, 64, 3, 3]
-0.0008584943 0.00079201756 0.0067207217 0.021573529 0.05147998 0.03337662 0.013764297 0.039360747
-0.010478721 0.03498594 -0.025108766 0.044279944 0.022670602 -0.00087350135 0.037908744 0.05164579
0.034425862 0.048667677 0.0042871195 0.0057641086 -0.027497742 0.033615656 0.021528495 0.024263553
0.0879818 0.03328108 0.031809255 0.015906427 0.028850762 0.033686284 -0.025676938 0.0076876637
-0.0019091819 0.03219645 -0.020223875 0.03063345 0.045753498 0.033325836 0.0085303085 0.006842488
-0.022633065 -0.008056441 0.038699117 0.024062874 0.010623089 0.031477425 0.041355323 -0.02824762
0.032584716 -0.0001315486 0.036635447 -0.02129511 -0.027543964 -0.025633236 0.04904448 0.0045826198
0.023874102 0.036932662 0.001466438 0.03508936 -0.013996511 0.03802723 0.036184125 0.020654967
-0.046602935 -0.04700667 -0.03038937 -0.017422242 -0.03286901 0.00059809705 -0.0015636171 -0.002071532
-0.0013518869 0.04068376 -0.0132204825 0.04112767 -0.027312847 0.036296014 0.013704441 0.04701127
-0.014346464 0.042389534 0.07845025 0.044526707 0.085502274 0.03009474 0.025239771 0.07970929
0.026488703 0.002673417 0.009011899 0.01969258 -0.014762101 0.009298898 0.033203665 0.040082134
0.039464395 -0.0036385355 0.004800979 -0.036363002 0.0074008233 0.013233031 0.014704636 -0.010960241
0.026287941 -0.005013041 -0.02587661 0.02288516 0.028255958 0.047657143 0.04108177 -0.003128526
-0.016216535 -0.020953244 -0.02899819 0.008015834 -0.023950864 0.013646195 -0.009390106 0.051654477
0.021489505 0.051718175 -0.017476255 0.039817907 -0.029354459 0.017611848 0.030999936 0.026909387
-0.0072509907 -0.0104780365 -0.017169233 0.0057866196 -0.014186298 0.0065136 0.019128822 0.0032293263
-0.00014183897 0.020600367 0.0027262673 -0.0021710515 -0.00012942124 -0.008418336 -0.009957301 0.018322809
-0.031235496 0.082214 0.061747763 0.046105564 0.06309088 0.07251193 0.0112775415 0.10960637
0.10307334 -0.018360924 0.004218264 0.04746234 -0.026577437 0.0057172123 0.04993473 0.037556887
0.028727116 0.048830703 0.039661955 -0.020173775 0.0036949979 0.0057259663 0.04369805 0.021520648
0.00019203774 -0.0023991223 -0.014479446 0.033609122 0.023430094 0.0077613527 -0.02355158 0.020876033
0.035772998 0.009840964 0.027477697 0.049220648 0.032380544 -0.0052856514 0.013634567 -0.00531743
0.040277954 -0.0059312293 0.024365276 0.040431406 0.052101847 -0.0030745498 0.021274582 0.03334773
0.004895486 0.043211136 0.023119474 -0.039116055 0.011213681 -0.031771623 0.00027994948 0.04128099
-0.024503231 0.0019871823 -0.008933072 0.026122741 -0.013243189 -0.00058246026 0.03925322 -0.0033014156
0.0010682158 0.0050431825 -0.035476785 0.0072288997 0.003586933 0.029975634 -0.02115136 -0.027693104
-0.02813283 0.039448448 0.042062815 -0.020132737 -0.021165246 0.02822595 0.040918317 0.0091351895
-0.0037905301 -0.035428137 -0.025068367 0.036166035 -0.017634405 -0.023926696 0.030810114 0.041426733
0.019489082 0.0064430223 -0.009653707 -0.006621332 0.031721875 0.016936088 -0.007614569 0.039273523
0.0077002775 -0.020183325 0.03340041 -0.019492833 -0.02783569 1.4838996e-05 0.027483882 0.0014047134
0.010439541 0.014163536 0.019158237 -0.01028037 0.015020941 -0.0288087 0.028913088 -0.014182292
00000000: 940c 61ba 669f 4f3a 8039 dc3b f8ba b03c
00000010: acdc 523d ecb5 083d a583 613c bc38 213d
00000020: f1ae 2bbc 6b4d 0f3d e6b0 cdbc e35e 353d
00000030: b3b7 b93c affb 64ba 3346 1b3d 898a 533d
00000040: 2202 0d3d c257 473d f77a 8c3b d9e0 bc3b
00000050: f242 e1bc 92b0 093d 875c b03c 5cc4 c63c
00000060: cd2f b43d be51 083d 6c4a 023d 324e 823c
00000070: 6f58 ec3c a1fa 093d 7158 d2bc cce8 fb3b
00000080: 843d faba 6de0 033d 8aac a5bc 00f3 fa3c
00000090: 0568 3b3d ac80 083d b5c2 0b3c f336 e03b
000000a0: fa68 b9bc 2aff 03bc f782 1e3d 811f c53c
000000b0: 770c 2e3c 79ee 003d 3364 293d 8e67 e7bc
000000c0: 8d77 053d 4ff0 09b9 0d0f 163d 1573 aebc
000000d0: e1a3 e1bc cbfc d1bc dde2 483d cd29 963b
000000e0: 9f93 c33c b446 173d 7f35 c03a dcb9 0f3d
000000f0: 9f51 65bc 71c2 1b3d ce35 143d 9b34 a93c
00000100: b8e2 3ebd 118a 40bd 21f3 f8bc 17b9 8ebc
00000110: a8a1 06bd 9dc9 1c3a 49f2 ccba 8ac2 07bb
00000120: cc31 b1ba 04a4 263d b99a 58bc 7d75 283d
00000130: 31bf dfbc 21ab 143d 9788 603c e48e 403d
00000140: 6e0d 6bbc a6a0 2d3d 86aa a03d a361 363d
00000150: d11b af3d 3f89 f63c a3c3 ce3c a03e a33d
00000160: d6fe d83c 7f34 2f3b a5a6 133c 5552 a13c
00000170: bddc 71bc 685a 183c 9100 083d 2a2d 243d
00000180: 6ba5 213d 7f74 6ebb 8851 9d3b 5ff1 14bd
00000190: 9b82 f23b 5bcf 583c b7eb 703c 9592 33bc
000001a0: cf59 d73c 7044 a4bb 2ffb d3bc a979 bb3c
000001b0: 0a79 e73c 2334 433d 5c45 283d f507 4dbb
000001c0: 8ad8 84bc 23a6 abbc 9d8d edbc d854 033c
000001d0: 9a34 c4bc 4a94 5f3c f6d8 19bc a593 533d
000001e0: c20a b03c 70d6 533d 5d2a 8fbc 1a18 233d
000001f0: c378 f0bc b946 903c 94f3 fd3c 1371 dc3c
00000200: b899 edbb 12ac 2bbc 7ea6 8cbc af9d bd3b
00000210: a56d 68bc 0970 d53b 0cb4 9c3c 1ba3 533b
00000220: 9cba 14b9 1ac2 a83c 2dab 323b 3348 0ebb
00000230: 40b5 07b9 0fed 09bc f323 23bc b719 963c
00000240: 95e1 ffbc d05f a83d 39eb 7c3d 30d9 3c3d
00000250: cb35 813d 2281 943d 70c5 383c 4e79 e03d
00000260: 1e18 d33d a669 96bc 5d39 8a3b df67 423d
00000270: edb8 d9bc 7457 bb3b 5c88 4c3d 40d5 193d
00000280: 2155 eb3c b402 483d 9374 223d 7943 a5bc
00000290: c727 723b e3a0 bb3b bafc 323d 124c b03c
000002a0: bd5d 4939 983a 1dbb 333b 6dbc b8a9 093d
000002b0: 78f0 bf3c f252 fe3b 3eef c0bc 3704 ab3c
000002c0: b586 123d ff3b 213c e818 e13c 979b 493d
000002d0: 76a1 043d 4233 adbb 8563 5f3c d63d aebb
000002e0: 7ffa 243d c25a c2bb b099 c73c 679b 253d
000002f0: bf68 553d 637e 49bb 0848 ae3c a197 083d
00000300: 506a a03b 29fe 303d 0d65 bd3c 2838 20bd
00000310: 96b9 373c f622 02bd 2fc6 9239 4116 293d
00000320: 00bb c8bc 633b 023b 055c 12bc 5cff d53c
00000330: f6f9 58bc 3fb0 18ba fcc7 203d 905c 58bb
00000340: 6003 8c3a 4841 a53b 1b50 11bd 68e0 ec3b
00000350: c012 6b3b 768f f53c 9e45 adbc a6dc e2bc
00000360: d276 e6bc b294 213d 0f4a 2c3d 69ed a4bc
00000370: bd62 adbc 1c3a e73c f799 273d c3ab 153c
00000380: 8b6a 78bb 181d 11bd 2d5c cdbc d622 143d
00000390: 0776 90bc eb01 c4bc 7e65 fc3c 14af 293d
000003a0: 91a7 9f3c fd1f d33b 952a 1ebc c2f7 d8bb
000003b0: ccee 013d 8dbd 8a3c a283 f9bb 46dd 203d
000003c0: 9c52 fc3b 8057 a5bc dece 083d 6faf 9fbc
000003d0: ac07 e4bc 01f5 7837 e125 e13c 5c1e b83a
000003e0: 9c0a 2b3c 2d0e 683c bcf1 9c3c ff6e 28bc
000003f0: 651a 763c 3900 ecbc 24db ec3c d85c 68bc

bottleneck.2.bias f4 [64]
0.03837695 0.035165746 -0.019571826 -0.01671376 0.02273506 0.027430339 -0.019889811 0.004416212
-0.035192203 -0.012098908 -0.026293991 0.020371562 0.01809826 0.038708396 0.03528401 0.015531224
0.0054183514 -0.04277076 0.014077599 0.021533484 -0.020181684 0.0155346785 0.003921806 0.030945875
0.01995008 0.008807361 0.030633003 -0.033790417 0.012164397 -0.02810645 0.0063313604 0.025169218
0.04706559 0.02355339 0.02816892 0.023127891 -0.0062903636 0.049989708 -0.013668537 0.0010150801
0.0130958585 0.02863876 0.041160747 0.03348512 0.034511372 0.030362133 0.00024471275 -0.029512037
0.023193846 0.03002278 0.04205812 -0.00014352269 -0.007006907 -0.029204391 -0.022517651 -0.018756777
0.010655442 0.017300773 0.022209158 0.015096216 0.0053728195 -0.0021401325 0.020383528 -0.020206401
00000000: 2631 1d3d f509 103d 1855 a0bc 4ceb 88bc
00000010: e03e ba3c 97b5 e03c f5ef a2bc dfb5 903b
00000020: b325 10bd 803a 46bc 7f66 d7bc 43e2 a63c
00000030: cd42 943c b28c 1e3d f785 103d ad76 7e3c
00000040: 6d8c b13b 6430 2fbd bba5 663c fd66 b03c
00000050: 0f54 a5bc 2a85 7e3c 7e82 803b 3482 fd3c
00000060: 5a6e a33c c04c 103c 10f2 fa3c d267 0abd
00000070: 2e4d 473c 7f3f e6bc 4d77 cf3b ad2f ce3c
00000080: d9c7 403d 0af3 c03c 82c2 e63c b476 bd3c
00000090: 651f cebb 02c2 4c3d 00f2 5fbc 700c 853a
000000a0: 0390 563c d59b ea3c 2c98 283d b127 093d
000000b0: cc5b 0d3d 02ba f83c ca4c 8039 3ac3 f1bc
000000c0: 0501 be3c 55f2 f53c 2345 2c3d 947e 16b9
000000d0: 329a e5bb 0c3e efbc f076 b8bc d0a7 99bc
000000e0: 2a94 2e3c 5aba 8d3c fbef b53c 1f56 773c
000000f0: 7a0e b03b 7741 0cbb 5bfb a63c e587 a5bc

upconv2.weight f4 [64, 32, 2, 2]
0.026979055 -0.05779339 0.019260999 0.0069129313 -0.052686002 -0.0262647 -0.014670101 -0.007875947
-0.025300428 -0.05371497 -0.029001111 0.018100087 -0.008533276 -0.03619887 -0.08325563 0.07005323
-0.020787027 -0.068455905 0.087186106 -0.014215782 -0.09673499 0.037737586 0.062191393 0.059513096
-0.05897898 0.022831984 -0.022568772 0.07004728 -0.03082049 -0.10044213 -0.04791364 -0.043720722
-0.029716974 0.032348406 0.023726884 0.092770055 0.02748474 -0.041315533 0.0514099 0.02217625
-0.07647109 0.030401707 -0.01232443 -0.08318484 0.08753799 0.01280243 0.036961276 0.077294916
0.08892202 0.033996675 0.050968464 -0.048432022 0.005585614 -0.053012747 0.049222186 0.0970348
0.0453143 0.0586345 -0.06671362 0.034532044 0.013211275 0.016483463 -0.0101645 -0.023941483
-0.012295032 0.04248143 -0.059967764 0.02108554 -0.023048727 -0.06755464 0.024096586 -0.058230612
0.074610636 0.02161096 -0.022081334 0.052858774 -0.013518469 0.001780713 0.03127599 -0.030293377
0.04493402 0.024250003 0.023207836 0.030487388 0.09225417 0.085965365 0.08791839 -0.05047125
0.01873142 0.09581243 -0.008626443 -0.07837712 0.037798144 -0.033102106 0.027666941 0.08773605
-0.05648601 0.01917737 0.014785934 0.00036682934 0.05541105 0.0061147404 0.056774765 -0.09388394
-0.008064159 -0.03459014 -0.01520848 -0.036879893 0.09299494 0.047644306 0.07061351 -0.04150658
0.0526396 -0.0642998 0.07924527 -0.021201586 -0.04733404 0.05107899 0.059829548 0.06869186
-0.037746117 0.01590633 -0.029677397 0.009068678 -0.027193718 -0.07709329 -0.004187191 0.07880741
-0.012898697 0.067415066 0.019108225 0.07096763 0.025831094 0.034061074 -0.08675478 -0.0481707
0.0323559 -0.07279291 -0.0345598 0.03732428 -0.03419754 -0.039068017 0.013547928 -0.09205439
-0.02533896 0.028834797 0.07233803 0.046495594 -0.061246686 -0.02172014 -0.008027482 0.037585113
-0.018916175 0.08627867 0.0042056404 0.095355466 0.05938968 -0.016188344 -0.028163169 -0.09018545
-0.047520336 -0.042036667 0.0679455 -0.058465894 -0.0007986991 -0.04508198 0.04556007 -0.032533646
0.023340587 -0.0010060448 0.06938039 0.007917214 0.051162183 -0.03618527 -0.06800608 0.09707627
0.062366024 -0.053292464 -0.042902295 -0.06124874 0.06477625 -0.0014473372 -0.019214759 -0.053162016
0.0021384864 -0.045685805 0.05071829 0.046761326 0.00018799279 -0.05495334 0.06721639 -0.06277647
0.08547918 -0.051658597 0.065225996 0.038903493 -0.025198717 -0.029984556 -0.024903491 0.024794374
-0.04754088 0.030089661 -0.0040366827 -0.0038321961 0.095118195 0.06299608 -0.029205058 0.09556776
0.048793834 -0.06238986 -0.041318808 -0.013740139 -0.059009828 0.0689909 -0.05732581 -0.03123866
-0.05417433 0.06042718 0.044403847 0.059749514 -0.048110154 0.0909695 0.046864625 -0.059326474
-0.07656822 -0.015429746 -0.08651217 0.046275973 -0.078857556 -0.010156078 0.05739606 0.02079296
-0.0214842 0.040336203 0.05486137 -0.019806515 -0.009538832 0.057568196 0.026358424 -0.022287808
-0.03538986 0.08160621 0.07226373 0.052821074 -0.019356897 -0.092897944 0.017344559 -0.00863734
-0.0047181384 0.084725074 0.080909185 0.020743757 -0.094727956 -0.016459836 0.023930568 -0.06880315
00000000: 2e03 dd3c c3b8 6cbd 3ec9 9d3c df85 e23b
00000010: 47cd 57bd 1129 d7bc dd5a 70bc 1e0a 01bc
00000020: d842 cfbc 3a04 5cbd bd93 edbc a246 943c
00000030: 27cf 0bbc 4445 14bd ee81 aabd 1178 8f3d
00000040: 8e49 aabc 9c32 8cbd a18e b23d 50e9 68bc
00000050: ff1c c6bd ba92 1a3d 67bc 7e3d 01c4 733d
00000060: f193 71bd 240a bb3c 25e2 b8bc f374 8f3d
00000070: 417b fcbc 9ab4 cdbd 1841 44bd 8014 33bd
00000080: 0371 f3bc c37f 043d e25e c23c 3afe bd3d
00000090: ad27 e13c 7a3a 29bd 3093 523d f8aa b53c
000000a0: e09c 9cbd 000d f93c 68ec 49bc d05c aabd
000000b0: 1e47 b33d 49c1 513c b564 173d cc4c 9e3d
000000c0: bf1c b63d 1940 0b3d 4fc4 503d a860 46bd
000000d0: 8707 b73b e523 59bd 349d 493d 2eba c63d
000000e0: 7d9b 393d bb2a 703d 27a1 88bd 7971 0d3d
000000f0: 1b74 583c 5408 873c 0189 26bc ee20 c4bc
00000100: 1a71 49bc 0201 2e3d c2a0 75bd 95bb ac3c
00000110: afd0 bcbc 165a 8abd 3466 c53c 3983 6ebd
00000120: 76cd 983d 7809 b13c eae3 b4bc 7182 583d
00000130: 927c 5dbc d066 e93a 411b 003d d129 f8bc
00000140: bc0c 383d f1a7 c63c 5c1e be3c b0c0 f93c
00000150: c1ef bc3d 9c0e b03d 8f0e b43d f1ba 4ebd
00000160: a372 993c 4f39 c43d ed55 0dbc 2f84 a0bd
00000170: 3ad2 1a3d 1396 07bd c8a5 e23c f5ae b33d
00000180: e05d 67bd dc19 9d3c b440 723c 0053 c039
00000190: b2f6 623d 295e c83b a88c 683d 3946 c0bd
000001a0: 891f 04bc 64ae 0dbd fd2c 79bc 5f0f 17bd
000001b0: 2274 be3d ad26 433d d19d 903d ce02 2abd
000001c0: 9f9c 573d 9daf 83bd 584b a23d f3ae adbc
000001d0: 57e1 41bd 3438 513d d40f 753d 51ae 8c3d
000001e0: ac9b 1abd fe4d 823c 031e f3bc cb94 143c
000001f0: 5cc5 debc 16e3 9dbd b434 89bb c865 a13d
00000200: 0e55 53bc e910 8a3d da88 9c3c 7a57 913d
00000210: bb9b d33c a083 0b3d 7dac b1bd a44e 45bd
00000220: 9f87 043d 7314 95bd 948e 0dbd 58e1 183d
00000230: b812 0cbd c905 20bd 21f8 5d3c 0387 bcbd
00000240: a793 cfbc f436 ec3c f625 943d 2a72 3e3d
00000250: cedd 7abd 6fee b1bc b385 03bc d9f2 193d
00000260: 18f6 9abc dfb2 b03d 78cf 893b ba49 c33d
00000270: 9842 733d 6b9d 84bc 72b6 e6bc 26b3 b8bd
00000280: afa4 42bd a42e 2cbd 0327 8b3d ef79 6fbd
00000290: ca5f 51ba e2a7 38bd 329d 3a3d 0042 05bd
000002a0: c234 bf3c 43dd 83ba 4e17 8e3d 34b7 013c
000002b0: 708f 513d 0137 14bd c646 8bbd eccf c63d
000002c0: 8473 7f3d 3349 5abd 51ba 2fbd f5df 7abd
000002d0: 69a9 843d 94b4 bdba 4568 9dbc 6ac0 59bd
000002e0: d925 0c3b 0a21 3bbd fbbd 4f3d ce88 3f3d
000002f0: ee1f 4539 c116 61bd bfa8 893d f390 80bd
00000300: b50f af3d f797 53bd 3595 853d 4559 1f3d
00000310: 8a6d cebc 2ca2 f5bc 6802 ccbc 921d cb3c
00000320: 3aba 42bd 987e f63c 2646 84bb 9525 7bbb
00000330: 54cd c23d 1704 813d 723f efbc 08b9 c33d
00000340: 0bdc 473d 838c 7fbd e93d 29bd 521e 61bc
00000350: 4ab4 71bd 1a4b 8d3d 78ce 6abd 38e8 ffbc
00000360: e7e5 5dbd 7e82 773d cfe0 353d e8bb 743d
00000370: 270f 45bd 384e ba3d 1ff5 3f3d 5100 73bd
00000380: cdcf 9cbd 0ccd 7cbc 4b2d b1bd e08b 3d3d
00000390: 1280 a1bd ae65 26bc 2218 6b3d ff55 aa3c
000003a0: a2ff afbc 9337 253d 51b6 603d 4641 a2bc
000003b0: c348 1cbc a1cc 6b3d 9fed d73c ec94 b6bc
000003c0: f5f4 10bd 2821 a73d 02ff 933d e95a 583d
000003d0: 5b92 9ebc 4741 bebd 2d16 8e3c a183 0dbc
000003e0: 9d9a 9abb 5784 ad3d b7b3 a53d d0ee a93c
000003f0: bb00 c2bd c7d6 86bc 0a0a c43c aae8 8cbd
