task_2_segmentation/Model Weights/hypothesis_best_model_weights.pth (torch, 477724 bytes, 25 tensors)

enc_conv1.0.weight f4 [16, 3, 3, 3]
0.018649107 -0.016060837 0.001953538 0.016811503 -0.037640966 0.17823276 0.025263263 0.09613136
-0.16539557 -0.0071469643 -0.019170647 0.043387264 -0.13418736 0.12384327 -0.0001907589 0.061814327
0.18294051 0.19326052 0.12785341 0.042522047 0.043587297 0.13739705 0.20247896 0.047942806
0.19650227 -0.14970835 0.11520856 0.032957554 0.18899399 0.13892396 -0.11395235 -0.10864739
-0.04055105 -0.10864335 0.07336406 0.16972376 -0.103480846 0.07604673 -0.08191246 -0.02520131
-0.10146341 -0.019049425 0.12710752 -0.08731919 0.069073334 0.037925035 -0.024280503 0.059082676
0.17150608 0.09427963 0.07567442 0.12825452 -0.11168255 0.070889905 0.054573238 -0.015140192
0.11547822 -0.06702963 0.18977399 0.0342736 0.016865442 -0.07800852 -0.1869349 -0.06629802
-0.02911299 0.1097801 -0.039441887 0.08232358 -0.10357713 0.019130656 -0.1865674 0.034372862
0.14178278 0.08562623 0.08172119 -0.042396504 -0.17389885 0.0046888134 0.075090244 0.10181031
0.1318572 0.117735304 0.023890788 0.13699122 -0.097966865 0.024601255 0.18661718 0.05862904
0.07570789 -0.17125855 0.10265929 -0.114978425 0.15475424 0.09583621 -0.16596726 0.04396087
-0.08474964 0.15624699 -0.05842275 0.0038151562 -0.15714616 0.19339396 0.14198628 0.16382389
0.022405691 0.17742473 -0.17009339 -0.103089154 -0.06898858 0.015043233 0.006377031 -0.09295826
0.03338722 0.08026441 -0.11302762 0.19369762 -0.18645371 0.07306768 -0.057649888 -0.028967181
-0.06672255 0.046208926 0.109240256 0.0967589 -0.13308908 -0.15389653 -0.14639999 0.1460877
-0.13607304 0.036241986 -0.08653226 -0.10201213 0.08492398 -0.07717299 -0.008693491 -0.05546103
0.045865815 0.07678115 -0.028652286 0.07599591 0.15976053 0.10879197 -0.09347416 -0.0789165
0.035632405 0.016124688 0.009181342 -0.16010347 0.0017844196 -0.047370173 -0.17102428 0.04705442
-0.15805753 0.1762424 -0.029513307 -0.0039841905 -0.057950404 -0.06105557 -0.0044597853 0.06433277
-0.15437979 -0.1562189 -0.080301166 -0.17905468 -0.14990938 0.16586153 0.118149236 0.10461346
0.18479696 0.11435876 -0.15372711 0.1557485 0.115885384 0.06718956 0.018132295 0.124952
-0.12769666 0.19249752 0.049112916 -0.090283535 -0.1807305 0.10712574 -0.0058357706 0.042397182
0.12417262 0.16805273 0.029784149 -0.1192508 -0.056881405 0.14068349 0.18566763 0.1782643
0.11224665 -0.1105218 -0.09521485 0.058533013 0.1543001 0.044141006 0.0070307283 -0.15837458
0.060813803 0.047539517 -0.13747615 0.0100202095 -0.10017331 0.09536455 0.04715542 0.04277323
-0.14964573 -0.1469919 -0.02311561 0.0010871935 0.11163873 0.10512458 -0.0050934837 -0.12164109
0.1891909 -0.05532549 -0.10062734 -0.11152626 -0.060229253 -0.111412026 0.108553454 0.02901712
-0.0367323 -0.15252453 0.09800195 -0.034397304 -0.17052619 0.14245826 0.0035746936 -0.05904389
0.03925547 0.09157475 0.10403702 -0.10055024 0.1727445 0.063290335 -0.038584214 0.15570787
-0.1469171 0.015164344 -0.1572678 -0.12181283 -0.045414988 0.15343371 -0.15611313 0.040407788
-0.11159318 -0.014197033 -0.092734724 0.01090496 0.17855677 -0.016040016 0.069467306 0.096853845
00000000: 03c6 983c 0492 83bc ee06 003b 47b8 893c
00000010: 6a2d 1abd a682 363e e7f4 ce3c 85e0 c43d
00000020: 755d 29be 1531 eabb c30b 9dbc d8b6 313d
00000030: 6968 09be 8aa1 fd3d 7406 48b9 0531 7d3d
00000040: c254 3b3e 16e6 453e 01ec 023e 992b 2e3d
00000050: 9888 323d d0b1 0c3e a556 4f3e ad5f 443d
00000060: e437 493e 254d 19be 77f2 eb3d 80fe 063d
00000070: a487 413e 1542 0e3e da5f e9bd 8682 debd
00000080: dc18 26bd 6880 debd e53f 963d 11cc 2d3e
00000090: c4ed d3bd 63be 9b3d b8c1 a7bd fa72 cebc
000000a0: 0ccc cfbd 8a0d 9cbc 7928 023e 67d4 b2bd
000000b0: 5276 8d3d 4857 1b3d e8e7 c6bc ad00 723d
000000c0: 4a9f 2f3e ae15 c13d 31fb 9a3d 2755 033e
000000d0: d2b9 e4bd ba2e 913d 3088 5f3d 910e 78bc
000000e0: d87f ec3d d546 89bd 1d54 423e 7962 0c3d
000000f0: 6529 8a3c eec2 9fbd dd6b 3fbe 42c7 87bd
00000100: 5d7e eebc 64d4 e03d d18d 21bd 4499 a83d
00000110: 3f20 d4bd e5b7 9c3c 860b 3fbe 8fca 0c3d
00000120: 812f 113e ce5c af3d 705d a73d f5a7 2dbd
00000130: 8a12 32be 9ea4 993b eac8 993d ec81 d03d
00000140: 9305 073e 351f f13d 9db6 c33c 6d47 0c3e
00000150: daa2 c8bd 9288 c93c 9318 3f3e 0125 703d
00000160: bd0c 9b3d 675e 2fbe 093f d23d cf79 ebbd
00000170: e577 1e3e c645 c43d 52f3 29be 5010 343d
00000180: 3891 adbd 36ff 1f3e b24c 6fbd b307 7a3b
00000190: ecea 20be 1109 463e da64 113e 73c1 273e
000001a0: 248c b73c d4ae 353e f62c 2ebe 6820 d3bd
000001b0: e249 8dbd e477 763c 6af6 d03b e660 bebd
000001c0: 0ac1 083d ab61 a43d 067b e7bd ab58 463e
000001d0: b9ed 3ebe 82a4 953d 4a22 6cbd 954c edbc
000001e0: d5a5 88bd 9245 3d3d 5bb9 df3d 8829 c63d
000001f0: 8148 08be 0d97 1dbe e1e9 15be 0498 153e
00000200: bb56 0bbe 7a72 143d d337 b1bd bceb d0bd
00000210: a0ec ad3d df0c 9ebd 256f 0ebc 1b2b 63bd
00000220: cbdd 3b3d 703f 9d3d 33b8 eabc bea3 9b3d
00000230: 4498 233e 53ce de3d 616f bfbd f99e a1bd
00000240: 49f3 113d ec17 843c 576d 163c 2af2 23be
00000250: 30e3 e93a 3a07 42bd fd20 2fbe 23bc 403d
00000260: d5d9 21be e378 343e e4c5 f1bc d08d 82bb
00000270: 675d 6dbd 6815 7abd 6423 92bb e6c0 833d
00000280: bc15 1ebe d9f7 1fbe f074 a4bd 1c5a 37be
00000290: d881 19be 9bd7 293e 3af8 f13d 953f d63d
000002a0: 6a3b 3d3e ed34 ea3d a46a 1dbe 897c 1f3e
000002b0: 5155 ed3d ae9a 893d 2e8a 943c d6e6 ff3d
000002c0: eac2 02be 121e 453e a02a 493d 93e6 b8bd
000002d0: 6b11 39be bd64 db3d fe39 bfbb aba8 2d3d
000002e0: 374e fe3d 0416 2c3e e3fd f33c c339 f4bd
000002f0: 7afc 68bd 550f 103e a81f 3e3e eb8a 363e
00000300: 92e1 e53d 4159 e2bd 0100 c3bd 50c0 6f3d
00000310: d800 1e3e 33cd 343d 0662 e63b f22c 22be
00000320: e517 793d ccb8 423d 8cc6 0cbe ce2b 243c
00000330: aa27 cdbd 7d4e c33d 0b26 413d fb32 2f3d
00000340: bb3c 19be 0b85 16be f35c bdbc 2980 8e3a
00000350: d9a2 e43d 8e4b d73d 3de7 a6bb f71e f9bd
00000360: 42bb 413e fb9c 62bd b515 cebd e167 e4bd
00000370: f3b2 76bd fd2b e4bd 4651 de3d 50b5 ed3c
00000380: 9c74 16bd 642f 1cbe 3fb5 c83d 30e4 0cbd
00000390: 6b9e 2ebe 94e0 113e 6845 6a3b 02d8 71bd
000003a0: 58ca 203d 8b8b bb3d 5c11 d53d 49ed cdbd
000003b0: efe3 303e 5d9e 813d 7b0a 1ebd e271 1f3e
000003c0: 7071 16be de73 783c cf0a 21be 0179 f9bd
000003d0: 1105 3abd ba1d 1d3e 1fdc 1fbe a382 253d
000003e0: f78a e4bd ac9a 68bc b4eb bdbd b8aa 323c
000003f0: 96d7 363e 5a66 83bc e044 8e3d 4f5b c63d

enc_conv1.0.bias f4 [16]
-0.120746315 -0.077693745 -0.15572992 -0.110345796 0.0323392 0.030130344 0.14410606 -0.030147294
0.19546407 -0.09085802 0.104260765 -0.12489741 0.08703751 0.20933472 0.19192965 0.1496694
00000000: d849 f7bd e61d 9fbd aa77 1fbe fafc e1bd
00000010: 1c76 043d e9d3 f63c 8a90 133e 75f7 f6bc
00000020: bc27 483e c513 babd ab86 d53d 37ca ffbd
00000030: b940 b23d d75b 563e 3589 443e ef42 193e

enc_conv1.2.weight f4 [16, 16, 3, 3]
0.0500171 0.006860542 0.06013299 0.061526865 0.07864504 -0.021874255 0.0041360664 0.055874303
-0.01572138 0.04108821 0.058862668 0.03047707 0.018483482 0.03823104 0.0038218598 -0.081079654
0.0015699092 0.07707113 0.09782461 0.08635581 -0.05445724 0.051906116 -0.015265142 0.02077525
0.07619743 -0.019402446 -0.005863303 0.019674141 0.0032121523 0.026036236 0.025017416 -0.07220687
-0.0093391575 0.050828528 0.0120575335 0.06330049 0.0055853785 0.030916099 0.10886614 0.032567564
0.044968847 0.0479484 -0.0073875226 -0.046490375 0.010546195 0.00860676 0.0670677 0.04980494
-0.048692986 0.06251553 0.033641063 -0.037776876 0.079844505 0.0017630459 -0.008115247 -0.037931837
0.010113238 -0.026281456 -0.04283788 -0.021601183 -0.0024645943 0.005130846 -0.04372771 -0.0076901736
0.06695864 -0.017974613 0.025438258 -0.007966022 -0.03886427 -0.0075943093 -0.012781549 -0.035261083
0.03575988 -0.0165442 -0.032888733 -0.042811677 0.052758913 0.033205267 -0.032407835 -0.058340076
0.06778626 0.06685376 0.05098631 -0.014042098 -0.035913594 0.0054796007 -0.062232416 -0.051398396
-0.049832016 -0.09845352 -0.013314037 -0.009655714 -0.030061554 0.0263431 -0.03260287 0.00772072
0.010125551 -0.0027569786 -0.055759598 0.011680273 -0.035931204 -0.07539754 0.0038671286 -0.06532916
-0.040644202 -0.010280933 0.007030269 -0.07752467 0.05829175 -0.050541952 0.048017867 0.05345031
0.07198583 0.08383508 0.10299689 0.0044641723 0.09210577 0.06063023 -0.004142712 0.021108998
0.08212428 0.003961111 0.088939 -0.014160704 -0.060859557 -0.055873573 0.0049058055 -0.05978804
-0.059097756 0.0853773 -0.059336513 -0.008790689 -0.031328715 0.07349133 -0.031915907 -0.015166786
-0.070599996 -0.0689656 0.03992185 -0.03505826 0.038441632 -0.009770875 0.056912042 0.03334398
-0.06859168 -0.075892165 0.0022085554 0.055985305 0.010380148 0.071937814 0.06429891 0.04465341
-0.0038361936 -0.020664867 -0.065306306 0.042514235 -0.0030806072 -0.04764044 -0.049172398 0.068011545
0.044661112 0.07166101 0.018957382 -0.05107243 -0.030651577 -0.024505904 -0.01577454 0.066243656
0.050012466 -0.05611306 0.010571538 0.062347993 -0.03854412 -0.063543215 0.0540519 0.05058416
0.06362972 -0.029444821 0.035630386 -0.008207502 -0.020845702 0.09649022 0.085371576 0.07635217
0.0231169 0.07775307 0.03311683 -0.0050069443 0.09902158 0.06956707 -0.05529923 0.026559489
-0.023912292 0.022960117 -0.047219332 0.017223265 0.019116338 -0.046492055 -0.02136278 0.0627788
0.046358358 -0.03707754 0.0387583 -0.020586073 0.06511534 -0.059837162 0.06711751 -0.006832482
-0.03686479 0.072348304 0.035237484 0.017265974 -0.07603158 -0.06859918 0.07401558 -0.06123931
-0.036318477 -0.0026984382 -0.031818733 0.028961988 -0.05253742 0.03941417 0.07530664 0.086549684
0.03872708 -0.048302736 0.098740585 -0.044754915 -0.02982974 0.00110465 0.011414237 0.14555657
0.0030190758 0.061261404 0.06414771 -0.007207232 0.061426423 -0.056090005 0.09114409 0.041978493
-0.0756937 0.046178937 0.021632334 -0.0077407737 0.039741933 -0.045336016 0.07161771 0.006291082
0.028976781 -0.015074498 -0.0014401666 -0.021804761 -0.008521416 -0.008088312 0.017609676 -0.041116547
00000000: bbde 4c3d 66ce e03b 034e 763d 9803 7c3d
00000010: a710 a13d a331 b3bc d787 873b 74dc 643d
00000020: 20ca 80bc 1c4c 283d fb19 713d 0cab f93c
00000030: ac6a 973c 2798 1c3d 2b78 7a3b 170d a6bd
00000040: 69c5 cd3a 78d7 9d3d 4558 c83d 51db b03d
00000050: 8e0e 5fbd 829b 543d a51a 7abc db30 aa3c
00000060: 660d 9c3d e1f1 9ebc f320 c0bb aa2b a13c
00000070: f982 523b f249 d53c 53f1 cc3c 32e1 93bd
00000080: 4403 19bc 9331 503d f68c 453c b0a3 813d
00000090: 8d05 b73b c243 fd3c 36f5 de3d 9165 053d
000000a0: 4131 383d 8b65 443d 0813 f2bb b16c 3ebd
000000b0: f3c9 2c3c 5e03 0d3c ca5a 893d 4400 4c3d
000000c0: 4c72 47bd 2408 803d 36cb 093d edbb 1abd
000000d0: 8485 a33d 0116 e73a d0f5 04bc 6a5e 1bbd
000000e0: ffb1 253c 354c d7bc c676 2fbd f7f4 b0bc
000000f0: 0885 21bb a820 a83b d41b 33bd dafd fbbb
00000100: 9d21 893d 7f3f 93bc e563 d03c eb83 02bc
00000110: 2430 1fbd afd9 f8bb b469 51bc ed6d 10bd
00000120: f478 123d b487 87bc 56b6 06bd 4c5b 2fbd
00000130: bb19 583d 3f02 083d 14be 04bd 01f6 6ebd
00000140: 86d3 8a3d a0ea 883d 05d7 503d d410 66bc
00000150: 221a 13bd 398e b33b 6be7 7ebd 2087 52bd
00000160: a81c 4cbd 00a2 c9bd 1e23 5abc 0033 1ebc
00000170: a643 f6bc 7ccd d73c 968a 05bd 18fe fc3b
00000180: a4e5 253c 6dae 34bb 2d64 64bd 9e5e 3f3c
00000190: 992c 13bd 076a 9abd a76f 7d3b 4bcb 85bd
000001a0: 897a 26bd 5c71 28bc 2c5e e63b 41c5 9ebd
000001b0: 54c3 6e3d 1405 4fbd 62ae 443d b6ee 5a3d
000001c0: 4f6d 933d bab1 ab3d 09f0 d23d 3148 923b
000001d0: f3a1 bc3d 6757 783d 96bf 87bb c7ec ac3c
000001e0: c630 a83d 35cc 813b a725 b63d 4c02 68bc
000001f0: df47 79bd b0db 64bd e1c0 a03b 4ee4 74bd
00000200: 7d10 72bd 4bda ae3d d80a 73bd d206 10bc
00000210: 8a52 00bd 9f82 963d 41ba 02bd 1c7e 78bc
00000220: bb96 90bd d63d 8dbd 1885 233d 4099 0fbd
00000230: f974 1d3d 0516 20bc 9a1c 693d b293 083d
00000240: cb79 8cbd 5a6d 9bbd 69bd 103b d950 653d
00000250: 7f11 2a3c 2254 933d 26af 833d 7ee6 363d
00000260: a668 7bbb 5e49 a9bc 50bf 85bd 6823 2e3d
00000270: 03e4 49bb 9f22 43bd ff68 49bd a349 8b3d
00000280: 92ee 363d 02c3 923d 834c 9b3c 5331 51bd
00000290: 0419 fbbc 9bc0 c8bc 9c39 81bc c1aa 873d
000002a0: dfd9 4c3d cfd6 65bd 3e34 2d3c 9c60 7f3d
000002b0: 70e0 1dbd f222 82bd 8665 5d3d 5631 4f3d
000002c0: 4c50 823d 4436 f1bc 2bf1 113d c278 06bc
000002d0: 9bc4 aabc aa9c c53d 4bd7 ae3d 875e 9c3d
000002e0: a75f bd3c 003d 9f3d 83a5 073d 4b11 a4bb
000002f0: d3cb ca3d 2e79 8e3d 7281 62bd 4993 d93c
00000300: b6e3 c3bc db16 bc3c 0f69 41bd ce17 8d3c
00000310: de99 9c3c 746e 3ebd ff00 afbc 2c92 803d
00000320: 43e2 3d3d 9ede 17bd 06c1 1e3d 20a4 a8bc
00000330: 315b 853d d017 75bd e874 893d 03e3 dfbb
00000340: 89ff 16bd 592b 943d 2e55 103d 5f71 8d3c
00000350: 72b6 9bbd ba7d 8cbd 7b95 973d 12d6 7abd
00000360: afc2 14bd 48d8 30bb 5c54 02bd b141 ed3c
00000370: 7a31 57bd c170 213d 5e3a 9a3d f640 b13d
00000380: 49a0 1e3d 17d9 45bd 8138 ca3d ee50 37bd
00000390: 805d f4bc e7c9 903a c802 3b3c c80c 153e
000003a0: b0db 453b 3ded 7a3d e05f 833d a52a ecbb
000003b0: 469a 7b3d a2be 65bd c1a9 ba3d a4f1 2b3d
000003c0: 4c05 9bbd 2026 3d3d 4b36 b13c 51a6 fdbb
000003d0: 70c8 223d 42b2 39bd 4eac 923d 6c25 ce3b
000003e0: b760 ed3c 07fb 76bc f9c3 bcba e69f b2bc
000003f0: 699d 0bbc d784 04bc 2b42 903c d369 28bd

enc_conv1.2.bias f4 [16]
0.06101362 -0.050689366 0.025333963 0.033877615 -0.055881295 0.042533465 0.08476047 0.025888165
0.031554986 0.06766561 0.019566607 -0.04281108 -0.0703383 0.09951852 -0.07998165 0.04228942
00000000: 6be9 793d a79f 4fbd 2c89 cf3c 41c3 0a3d
00000010: c9e3 64bd 9237 2e3d e696 ad3d 6b13 d43c
00000020: cd3f 013d 4494 8a3d 264a a03c ac5a 2fbd
00000030: 870d 90bd 5ed0 cb3d 6bcd a3bd ac37 2d3d

enc_conv2.0.weight f4 [32, 16, 3, 3]
-0.07696197 -0.04025001 0.037215997 0.053667225 0.002911751 0.0071461555 -0.036038145 -0.039098494
-0.084981 -0.0757794 0.006407735 0.086852536 0.008275892 0.022869548 -0.052724507 -0.012700217
0.07657472 0.066236146 -0.030342735 -0.049899887 -0.01158619 0.06269802 -0.0648908 -0.020532027
-0.047208484 0.040452346 -0.054346185 0.061687317 -0.06728455 0.0223826 0.0936557 0.073372215
-0.033783592 0.044413794 0.05954229 0.0690462 0.0720535 -0.0024629703 -0.055882894 0.0792005
-0.036179908 -0.04878821 0.012829435 0.06438715 -0.028477874 0.015375526 -0.0083426805 0.0096519245
0.016071869 0.019050958 -0.036583535 -0.07054718 -0.036551815 0.0009689087 0.07557444 0.00041380635
-0.059675 0.08081761 -0.011351596 0.033243403 0.008648959 0.07822299 -0.027330415 -0.02075935
0.064739645 0.07096145 -0.013508995 -0.027767414 0.020010522 -0.0668533 0.09050886 0.08787555
-0.021080894 0.08429649 0.045357 0.034228917 0.079971455 0.06574914 0.014447061 0.020030113
0.07541573 -0.060669024 0.05006661 -0.06473779 0.039077997 0.050389007 -0.008685668 0.056398086
-0.026994215 0.079832636 -0.016211994 0.09934544 -0.01028464 0.09089645 0.029088069 0.024121825
-0.04879437 0.06347949 0.111117415 0.055690065 0.022381084 -0.046541266 -0.057685085 -0.008328388
0.028669229 0.039576765 -0.03413958 -0.06106736 0.023367465 0.043519534 0.027885921 0.009171717
-0.021714907 -0.0036155581 0.07315799 -0.022838466 -0.046515685 -0.048299927 0.0035143027 -0.0034983663
0.048860207 0.07628015 -0.022071904 -0.028643465 -0.027977385 -0.0055855443 -0.064261355 0.042560764
0.06907902 -0.015032288 -0.02587307 0.057238035 -0.016516898 0.041302424 -0.041220162 0.059002947
-0.04188899 -0.065566696 0.07838392 0.0017702486 0.05899944 -0.059578847 0.07855719 -0.010059657
0.03115392 -0.059276104 -0.01571829 0.036073342 -0.0050309114 0.03768134 0.011456577 0.08134903
0.07452519 0.018500624 -0.0064546177 0.0870904 0.009011979 0.07834159 0.048432525 -0.030201051
-0.05827407 0.08367104 -0.008995113 0.028997852 0.0037970208 -0.08202123 0.06888238 0.041281205
-0.056907296 -0.067519546 0.019557232 0.08599064 -0.057346623 0.08407357 0.086109295 0.020114614
-0.06063038 0.06510878 -0.049509525 -0.0182516 0.010692553 0.020923072 0.064754635 -0.06764374
0.037796203 0.050406512 0.041694373 0.0801474 0.06102119 0.093053885 -0.06551248 0.038112395
0.0043291906 -0.0032488892 0.054952253 -0.016594509 0.050659735 0.0046011275 0.02253236 0.09284365
0.029259855 0.039136667 0.07034898 -0.010874781 -0.038428325 0.05897785 0.06624773 0.027928356
0.046939153 0.019188797 0.05039958 -0.025683077 0.089026995 0.06386542 -0.065141596 -0.023492621
-0.044950496 -0.014667999 0.05546427 0.011835829 -0.030673893 0.027697371 0.01882691 -0.025853377
0.06990694 -0.04478435 0.043914244 -0.028590431 0.09133617 0.02790892 -0.037344508 -0.06405162
-0.025326937 0.01798863 0.0055009504 0.046675265 -0.030756898 0.09228205 0.0660294 -0.024206014
0.018199338 -0.044521406 -0.025556434 0.056774955 0.03132297 0.01144467 -0.019440522 0.06442068
-0.0043637855 -0.02699233 -0.057569902 -0.057982955 0.008138455 0.04871624 0.030621938 -0.019158997
00000000: 3d9e 9dbd 32dd 24bd cd6f 183d 2ad2 5b3d
00000010: 13d3 3e3b 4c2a ea3b bc9c 13bd be25 20bd
00000020: 850a aebd 3b32 9bbd faf7 d13b bedf b13d
00000030: 9b97 073c eb58 bb3c a7f5 57bd 9214 50bc
00000040: 35d3 9c3d d1a6 873d 5491 f8bc d363 4cbd
00000050: 01d4 3dbc d267 803d 78e5 84bd c832 a8bc
00000060: af5d 41bd 5cb1 253d 1b9a 5ebd d7ab 7c3d
00000070: 7bcc 89bd b75b b73c 8fce bf3d 2c44 963d
00000080: aa60 0abd 3deb 353d 9ee2 733d 1868 8d3d
00000090: c990 933d c969 21bb 76e5 64bd df33 a23d
000000a0: 6231 14bd 25d6 47bd 8d32 523c 69dd 833d
000000b0: 6e4a e9bc a1e9 7b3c bdaf 08bc 1b23 1e3c
000000c0: 27a9 833c c110 9c3c 9ed8 15bd 0a7b 90bd
000000d0: 5bb7 15bd 5dfe 7d3a c6c6 9a3d 26f4 d839
000000e0: c66d 74bd b483 a53d 0bfc 39bc 3c2a 083d
000000f0: 5db4 0d3c 6033 a03d 09e4 dfbc 830f aabc
00000100: 3896 843d 3d54 913d d554 5dbc 7d78 e3bc
00000110: 1bed a33c 62ea 88bd b65c b93d 19f8 b33d
00000120: d7b1 acbc a3a3 ac3d 43c8 393d 9f33 0c3d
00000130: 13c8 a33d 7ca7 863d 5eb3 6c3c 3116 a43c
00000140: 9073 9a3d 1580 78bd a512 4d3d 3f95 84bd
00000150: 4010 203d b464 4e3d 554e 0ebc ae01 673d
00000160: f922 ddbc 4b7f a33d 04cf 84bc 9f75 cb3d
00000170: e880 28bc eb27 ba3d 1a4a ee3c 229b c53c
00000180: 9bdc 47bd 8901 823d 8791 e33d 441b 643d
00000190: 8958 b73c 0ea2 3ebd 3247 6cbd cb73 08bc
000001a0: bbdb ea3c 3f1b 223d f2d5 0bbd c521 7abd
000001b0: 206d bf3c 8a41 323d 0471 e43c f844 163c
000001c0: 76e3 b1bc 00f3 6cbb dbd3 953d bc17 bbbc
000001d0: 3b87 3ebd 25d6 45bd 3750 663b d944 65bb
000001e0: a421 483d c438 9c3d 23d0 b4bc b3a5 eabc
000001f0: d430 e5bc f106 b7bb 759b 83bd 3254 2e3d
00000200: 4d79 8d3d fc49 76bc c3f3 d3bc 6e72 6a3d
00000210: 724e 87bc bb2c 293d 79d6 28bd 13ad 713d
00000220: ca93 2bbd d547 86bd c087 a03d b007 e83a
00000230: 66a9 713d f308 74bd 98e2 a03d 42d1 24bc
00000240: 8136 ff3c 80cb 72bd a5c3 80bc a4c1 133d
00000250: 58da a4bb c057 1a3d 5eb4 3b3c 529a a63d
00000260: aaa0 983d 9f8e 973c 4281 d3bb 745c b23d
00000270: fba6 133c 8e71 a03d 2f61 463d 3268 f7bc
00000280: cbb0 6ebd b95b ab3d 3d60 13bc e78c ed3c
00000290: 70d7 783b bffa a7bd 3512 8d3d 7b16 293d
000002a0: a017 69bd b047 8abd 7d36 a03c dc1b b03d
000002b0: 4be4 6abd c42e ac3d 125a b03d 67c7 a43c
000002c0: 9057 78bd c157 853d 80ca 4abd 6184 95bc
000002d0: d12f 2f3c dd66 ab3c 149e 843d cd88 8abd
000002e0: 31d0 1a3d 0f77 4e3d b8c7 2a3d 5224 a43d
000002f0: 5bf1 793d 0993 be3d 682b 86bd be1b 1c3d
00000300: e2db 8d3b 51eb 54bb 9d15 613d 35f1 87bc
00000310: 9580 4f3d 0ec5 963b c995 b83c d024 be3d
00000320: 5db2 ef3c c54d 203d 2013 903d 232c 32bc
00000330: 0567 1dbd c292 713d e4ac 873d 02ca e43c
00000340: 4543 403d d331 9d3c ca6f 4e3d 5165 d2bc
00000350: c953 b63d e0cb 823d f568 85bd 9973 c0bc
00000360: 031e 38bd 0c52 70bc 812e 633d 11eb 413c
00000370: d147 fbbc 99e5 e23c e43a 9a3c 76ca d3bc
00000380: 5f2b 8f3d cb6f 37bd 6cdf 333d 7b36 eabc
00000390: 750e bb3d 3fa1 e43c 8ef6 18bd 7f2d 83bd
000003a0: 707a cfbc e45c 933c 5141 b43b 902e 3f3d
000003b0: e4f5 fbbc 5ffe bc3d 6c3a 873d b14b c6bc
000003c0: c716 953c 145c 36bd ba5b d1bc db8c 683d
000003d0: 844c 003d 6d82 3b3c bb41 9fbc fdee 833d
000003e0: 16fe 8ebb 051f ddbc 6bce 6bbd 897f 6dbd
000003f0: 2857 053c ae8a 473d dcda fa3c 54f3 9cbc

enc_conv2.0.bias f4 [32]
-0.06451286 0.0956205 -0.0018299381 -0.07324217 -0.0021336365 0.0212175 0.08336991 -0.05302479
-0.016059978 -0.023354786 0.019854624 -0.06267077 -0.06633906 -0.017065277 0.02084801 -0.010565938
0.061460968 0.041592717 -0.056216147 -0.060647275 0.016314534 0.11392495 0.10382075 0.038238306
-0.044252865 -0.038883425 0.07888607 0.047423325 -0.041060764 0.08735983 0.03683219 -0.021021783
00000000: 511f 84bd aed4 c33d 89da efba feff 95bd
00000010: 7bd4 0bbb 53d0 ad3c d8bd aa3d 8630 59bd
00000020: 3790 83bc 8952 bfbc 2aa6 a23c 8859 80bd
00000030: c6dc 87bd 7bcc 8bbc 72c9 aa3c c21c 2dbc
00000040: 7fbe 7b3d 205d 2a3d e742 66bd 4769 78bd
00000050: 0fa6 853c 7c51 e93d f99f d43d c59f 1c3d
00000060: 7e42 35bd 3a44 1fbd 058f a13d f63e 423d
00000070: 552f 28bd b6e9 b23d 5add 163d e035 acbc

enc_conv2.2.weight f4 [32, 32, 3, 3]
0.04739029 -0.025888214 0.0016593476 -0.004762993 -0.050238226 0.03745874 0.023293568 0.029390208
-0.0025830301 0.009571358 0.0541353 0.061802242 0.06406961 -0.04216414 -0.018030247 -0.034613147
-0.0038528794 -0.044655874 0.054175515 -0.021751989 -0.028191416 -0.027872287 -0.03260036 0.03622616
0.015195842 -0.03155671 -0.052068032 -0.010093943 0.016840052 -0.030258754 0.008335644 0.0048192116
-0.036144882 0.026721822 -0.039635736 -0.027714802 0.05478731 0.014471227 0.045880925 0.0018870687
-0.04785791 0.059121843 -0.0115567455 0.02787013 0.008761605 0.06604418 -0.009299416 0.02797558
0.0633988 0.03564422 -0.04092332 0.027326833 0.041871015 0.04597191 -0.031902876 -0.0049832817
-0.029152235 0.012649476 0.04466497 -0.008226916 -0.0399985 0.03656768 0.0446838 0.017029064
0.03002436 -0.033090986 -0.04577038 -0.010059718 0.02318325 0.014080622 0.057326604 -0.044681948
0.08049428 0.08489419 -0.027029235 0.083878525 0.034745056 0.057234783 0.026932212 0.035242785
0.08100671 0.05246462 -0.02410849 -0.0067337397 0.05076652 0.061305553 0.02774198 0.032212693
0.006448882 0.023362543 0.00025834327 0.04763344 -0.03037804 0.031045148 -0.039167505 0.029296888
0.030442912 0.03503228 -0.027562518 -0.021324432 -0.0016266525 0.028819859 0.044942927 -0.014498892
0.01476277 -0.00012283161 -0.023074504 0.012843075 0.049629644 -0.044722307 0.0051677516 -0.041439276
-0.03675825 -0.034258466 0.01652579 0.03952601 -0.009742588 0.063776515 0.037994713 0.007900148
0.06825519 0.0047883247 0.07078333 -0.015028293 0.068470284 0.055149633 0.026051702 -0.009301587
0.06436313 0.011943929 0.026721757 -0.022649938 0.016391402 -0.0013524295 0.056882985 0.00874108
0.049153425 0.026916282 0.043316796 0.028173504 0.03321959 0.03839648 0.025085915 0.03731766
0.036734074 0.011715093 -0.021037271 0.054389477 -0.0045772004 -0.007473485 -0.010144228 0.008709244
0.020675553 -0.029651608 -0.0024922383 0.06356815 0.05823869 0.007958862 0.06609883 -0.028711664
0.009578025 -0.018580971 -0.054320797 -0.024749625 -0.0019308508 -0.025776139 -0.043716304 -0.02342829
0.013979789 0.05227668 -0.05452824 0.021961663 0.051975396 0.03833765 -0.0016723461 0.054655485
-0.020562392 0.012219455 -0.033852845 0.05596451 -0.03157246 -0.041547917 -0.009986975 -0.034754567
0.0077720857 -0.013003995 0.05318438 0.054287586 -0.017857939 0.08197923 0.013745467 0.08110344
0.004553411 0.03698725 0.03521102 -0.0069722827 0.044866517 -0.0030929502 0.07878619 0.03424649
0.041032564 0.034141447 0.05025562 0.036805384 0.025740163 0.055433087 0.04717527 0.0015108287
-0.03555528 0.029274818 0.034386337 -0.044207193 0.023729132 0.018565841 -0.041623 0.052053504
0.059734993 0.03503746 -0.04304687 0.040791743 0.046498302 -0.037341274 -0.027648857 0.033892687
-0.014733732 -0.019385433 0.03669058 0.04272754 -0.02403568 -0.004769024 -0.029739514 -0.044403605
0.04090698 0.043986008 0.0015168291 -0.038183704 0.053892203 0.013761513 0.024758747 0.017890409
0.02455317 0.031076176 0.030173173 -0.050062712 0.06060362 -0.03554561 0.047279384 0.040930107
0.023876075 -0.049930416 0.0016124726 0.059291445 -0.048351917 -0.12770046 -0.07413279 -0.0426714
00000000: 521c 423d 8513 d4bc 777e d93a e212 9cbb
00000010: 99c6 4dbd 566e 193d 27d2 be3c bcc3 f03c
00000020: 0e48 29bb 2fd1 1c3c fabc 5d3d 5924 7d3d
00000030: ed36 833d 4eb4 2cbd 2bb4 93bc 84c6 0dbd
00000040: 9780 7cbb 14e9 36bd 25e7 5d3d 3a31 b2bc
00000050: aff1 e6bc 6c54 e4bc f587 05bd e261 143d
00000060: fbf7 783c 9c41 01bd 4a45 55bd 1161 25bc
00000070: 26f4 893c 35e1 f7bc 3a92 083c 7aea 9d3b
00000080: a80c 14bd b9e7 da3c 1559 22bd 270a e3bc
00000090: a968 603d ba18 6d3c a3ed 3b3d 8557 f73a
000000a0: a806 44bd bf29 723d 8158 3dbc e64f e43c
000000b0: d68c 0f3c 2c42 873d 945c 18bc 0b2d e53c
000000c0: 3bd7 813d acff 113d 369f 27bd 86dc df3c
000000d0: f180 2b3d 0b4d 3c3d 97ac 02bd cc4a a3bb
000000e0: abd0 eebc bf3f 4f3c 9ef2 363d 30ca 06bc
000000f0: 78d5 23bd fec7 153d 5c06 373d 8980 8b3c
00000100: a6f5 f53c 6a8a 07bd b979 3bbd 84d1 24bc
00000110: cdea bd3c 69b2 663c 4dcf 6a3d 6b04 37bd
00000120: 2fda a43d 01dd ad3d 6a6c ddbc 81c8 ab3d
00000130: d550 0e3d 056f 6a3d f1a0 dc3c bd5a 103d
00000140: d9e6 a53d 24e5 563d 2b7f c5bc b4a6 dcbb
00000150: 8ef0 4f3d 881b 7b3d 2643 e33c 75f1 033d
00000160: 2551 d33b ce62 bf3c 3f72 8739 481b 433d
00000170: 5edb f8bc 6552 fe3c 1b6e 20bd 0700 f03c
00000180: 6a63 f93c 027e 0f3d caca e1bc 93b0 aebc
00000190: 6735 d5ba a017 ec3c 1316 383d c38c 6dbc
000001a0: 8cdf 713c 5ccc 00b9 be06 bdbc c36b 523c
000001b0: 7448 4b3d bd2e 37bd 3e56 a93b 3bbc 29bd
000001c0: d28f 16bd 9b52 0cbd 1861 873c 07e6 213d
000001d0: 609f 1fbc 439d 823d 58a0 1b3d 9f6f 013c
000001e0: 61c9 8b3d 61e7 9c3b daf6 903d 3b39 76bc
000001f0: 263a 8c3d 95e4 613d 616a d53c af65 18bc
00000200: d1d0 833d 78b0 433c 96e7 da3c 5d8c b9bc
00000210: 4347 863c 0144 b1ba 22fe 683d bf36 0f3c
00000220: 1a55 493d 897f dc3c f46c 313d 1fcc e63c
00000230: 4411 083d a145 1d3d fa80 cd3c 67da 183d
00000240: 7876 163d a9f0 3f3c 5b56 acbc 80c7 5e3d
00000250: 57fc 95bb 23e4 f4bb fa33 26bc 38b1 0e3c
00000260: c75f a93c eee7 f2bc d254 23bb 0530 823d
00000270: b18b 6e3d e365 023c d35e 873d b934 ebbc
00000280: 26ed 1c3c 1f37 98bc 7c7f 5ebd babf cabc
00000290: 9a14 fdba 7b28 d3bc de0f 33bd afec bfbc
000002a0: 7c0b 653c 1220 563d 0159 5fbd f2e8 b33c
000002b0: 27e4 543d f107 1d3d a032 dbba 6ede 5f3d
000002c0: 7672 a8bc 1c34 483c 48a9 0abd 0b3b 653d
000002d0: 2052 01bd 262e 2abd 69a0 23bc ce5a 0ebd
000002e0: fbac fe3b b50e 55bc ddd7 593d a95c 5e3d
000002f0: d04a 92bc bae4 a73d ab34 613c 8f19 a63d
00000300: c834 953b f17f 173d 6e39 103d bf77 e4bb
00000310: f4c5 373d 18b3 4abb a75a a13d 0c46 0c3d
00000320: c311 283d e7d7 0b3d d6d8 4d3d 3ec1 163d
00000330: 09dd d23c ce0d 633d db3a 413d 0007 c63a
00000340: 6aa2 11bd bed1 ef3c b0d8 0c3d 9a12 35bd
00000350: 9963 c23c 6417 983c e17c 2abd 0e36 553d
00000360: aeac 743d 7183 0f3d ea51 30bd 3e15 273d
00000370: 0175 3e3d 2af3 18bd db7f e2bc 0fd3 0a3d
00000380: c065 71bc 33ce 9ebc dd48 163d 1303 2f3d
00000390: 79e6 c4bc 7945 9cbb 48a0 f3bc 8ee0 35bd
000003a0: 148e 273d ac2a 343d 57d0 c63a 8466 1cbd
000003b0: 12be 5c3d f877 613c dbd2 ca3c e88e 923c
000003c0: bb23 c93c 7793 fe3c bb2d f73c 8f0e 4dbd
000003d0: 803b 783d 4698 11bd 07a8 413d 54a6 273d
000003e0: c297 c33c d683 4cbd 9a59 d33a 96db 723d
000003f0: a90c 46bd e9c3 02be efd2 97bd 35c8 2ebd

enc_conv2.2.bias f4 [32]
0.065921284 -0.048420973 0.030444525 -0.027262963 0.07633853 0.07221564 0.063411355 0.04444423
-0.04971556 -0.02084123 -0.038413294 0.054118186 0.061112065 0.009233003 0.017459037 -0.01803393
0.03463865 -0.0023169736 0.02064787 0.06403248 -0.001162565 -0.026735088 0.0125288665 0.032340087
0.059706647 0.027928807 0.021281954 -0.007969978 -0.0255729 0.018094528 0.05034637 0.0029993632
00000000: bd01 873d 1255 46bd cc66 f93c 9456 dfbc
00000010: 6057 9c3d cbe5 933d d0dd 813d 270b 363d
00000020: 8ba2 4bbd 3abb aabc 4257 1dbd 08ab 5d3d
00000030: a550 7a3d 0546 173c 4106 8f3c e4bb 93bc
00000040: 42e1 0d3d 5ed8 17bb b925 a93c 7623 833d
00000050: 3561 98ba 8b03 dbbc e045 4d3c 0a77 043d
00000060: f58e 743d f4ca e43c 7e57 ae3c 8394 02bc
00000070: 427e d1bc fa3a 943c ff37 4e3d f790 443b

bottleneck.0.weight f4 [64, 32, 3, 3]
0.052294154 -0.016040111 0.0010080116 0.017221173 0.01941095 0.018391715 0.044322222 -0.015082758
0.0043060537 -0.0032151951 0.035671238 -0.022300353 0.0064397855 0.041601148 -0.016689623 0.059716184
0.0645091 0.065700635 0.008650967 -0.01140205 -0.0072330055 0.056075256 0.05006672 -0.040109344
0.025675515 -0.046438046 -0.04724545 -0.03390344 -0.005040027 -0.000815358 0.03481746 -0.042691574
0.008226473 -0.026826259 -0.055501856 -0.050595768 0.035406534 0.021616159 -0.037795324 0.015489525
0.020465419 -0.014112411 0.008463726 0.024231965 0.049292088 0.01874232 0.012413142 0.042723544
0.06793886 0.010224485 0.08452612 0.033875458 -0.015961194 0.003661362 -0.013830834 -0.01777345
-0.029715715 0.019067576 -0.028429402 -0.0049287057 -0.037100125 0.060905866 0.045451146 -0.010088233
-0.04141706 -0.0354208 0.024042588 0.013253882 -0.03327988 -0.018153248 -0.0022781165 0.013389538
-0.020901306 0.0040983227 0.035598204 0.057212863 -0.044760525 -0.03828665 0.022053184 0.03860105
-0.0013174292 0.0042129923 -0.042224135 0.0658888 -0.009564063 0.014781377 -0.01197294 0.047424607
0.037216492 -0.027698163 0.015930247 -0.046957426 -0.04428693 0.015182821 0.012211793 0.038381748
0.053392764 0.02323797 -0.037314214 0.058476888 -0.035584465 0.050403193 -0.0014664922 0.0661379
0.029741798 0.037712794 0.025208633 -0.007716862 0.06641084 -0.006722444 0.038102113 0.0944072
0.0993332 0.066962436 0.07342492 0.06302301 0.054622315 0.006785405 0.018515063 0.0007864489
0.05003351 -0.005879613 0.011788148 0.014522361 -0.012941368 0.04517195 0.020396281 0.05156238
0.035749085 -0.016407019 0.05179901 0.022670938 0.00770306 -0.02298491 0.0066241906 0.01733916
0.015024968 0.05619709 0.004135294 -0.0046345354 0.044952534 0.037199095 -0.018047623 -0.015086698
-0.015184522 -0.025692943 0.032089468 0.029511059 0.012281314 0.03672969 -0.0045559574 0.020769745
0.041987136 0.027881242 0.043151036 -0.022539802 -0.017649066 -0.00063711987 0.010038033 0.010948783
0.004974456 -0.02185834 0.05815772 -0.02919527 -0.00012634967 -0.044164345 -0.020043723 -0.019693924
0.061826855 -0.040337015 0.01801604 0.060953636 -0.009960688 -0.037123896 0.007996259 -0.041143242
-0.0044237236 0.058315285 0.013306801 0.029200545 0.015751777 -0.033254296 0.053470135 -0.049521275
-0.03832251 0.040318117 -0.024582136 -0.015206661 0.032073844 -0.043043632 -0.018894402 -0.053724464
-0.05090671 0.021556852 0.06006084 0.032011446 -0.0332741 -0.020205656 -0.019246023 0.009259523
0.038893554 -0.008304715 0.024179894 -0.044608593 0.023934118 0.023928395 0.019338012 0.025049236
0.004434951 -0.031952687 0.056496575 0.02030138 -0.03831542 0.008221156 0.059088707 -0.03865764
0.0594362 -0.010770591 0.0156069305 0.009826549 0.044621892 -0.028414672 0.012015344 0.021823756
0.032030877 0.049795486 0.017362416 -0.028223718 -0.034827746 0.033443112 -0.010692726 0.015593349
0.055173554 0.04235046 -0.0050542685 0.003236171 -0.02765286 0.058981724 0.010575438 -0.030791424
-0.041194215 0.01241403 -0.0075251036 0.03765469 -0.011115397 0.008629102 0.054880552 0.050871782
0.055553563 0.012148488 -0.02306646 0.059440248 0.018337749 -0.03923333 -0.016101982 -0.028877562
00000000: 6532 563d 8d66 83bc 421f 843a 6b13 8d3c
00000010: b603 9f3c 39aa 963c 388b 353d ac1d 77bc
00000020: cc19 8d3b 06b6 52bb 011c 123d 3baf b6bc
00000030: d604 d33b f765 2a3d adb8 88bc f598 743d
00000040: 591d 843d 0e8e 863d c9bc 0d3c aacf 3abc
00000050: d902 edbb 2baf 653d c312 4d3d b249 24bd
00000060: 7555 d23c d235 3ebd 7284 41bd 55de 0abd
00000070: d026 a5bb c0bd 55ba c19c 0e3d 5cdd 2ebd
00000080: 54c8 063c bec2 dbbc ea55 63bd 823d 4fbd
00000090: 7106 113d 5f14 b13c 45cf 1abd c7c7 7d3c
000000a0: 18a7 a73c be37 67bc 71ab 0a3c 1d82 c63c
000000b0: 80e6 493d 7e89 993c 7e60 4b3c e2fe 2e3d
000000c0: 8723 8b3d 9984 273c 081c ad3d fec0 0a3d
000000d0: 0dc1 82bc 76f3 6f3b b99a 62bc a099 91bc
000000e0: 5f6e f3bc 9b33 9c3c c7e4 e8bc fb80 a1bb
000000f0: 4df6 17bd 6e78 793d fb2a 3a3d 1e49 25bc
00000100: efa4 29bd 6715 11bd f6f4 c43c cf26 593c
00000110: 7c50 08bd 1fb6 94bc 744c 15bb cb5f 5b3c
00000120: 3739 abbc 394b 863b 6ccf 113d 0958 6a3d
00000130: d056 37bd 76d2 1cbd e1a8 b43c 221c 1e3d
00000140: 97ad acba 240d 8a3b 37f3 2cbd b5f0 863d
00000150: 96b2 1cbc 972d 723c 262a 44bc 4e40 423d
00000160: 5270 183d 42e7 e2bc 2680 823c 6e56 40bd
00000170: 3666 35bd 5ec1 783c f913 483c 2e36 1d3d
00000180: 5fb2 5a3d 8e5d be3c cad6 18bd 7685 6f3d
00000190: 04c1 11bd 9473 4e3d 5037 c0ba 4f73 873d
000001a0: 12a5 f33c bb78 1a3d 5682 ce3c bbdd fcbb
000001b0: 6802 883d f347 dcbb f610 1c3d 9058 c13d
000001c0: 346f cb3d 9a23 893d ce5f 963d 3512 813d
000001d0: a6bb 5f3d 1a58 de3b e7ac 973c b129 4e3a
000001e0: f0ef 4c3d c5a9 c0bb 1423 413c 32ef 6d3c
000001f0: 0808 54bc 3906 393d 1a16 a73c 1333 533d
00000200: a26d 123d 0368 86bc 332b 543d 67b8 b93c
00000210: f369 fc3b da4a bcbc bd0f d93b db0a 8e3c
00000220: 492b 763c eb2e 663d 5c81 873b 4ddd 97bb
00000230: 2620 383d 145e 183d 9cd8 93bc 332e 77bc
00000240: 80c8 78bc 027a d2bc 3f70 033d 2dc1 f13c
00000250: 9037 493c df71 163d 244a 95bb 5025 aa3c
00000260: b4fa 2b3d 3467 e43c 24bf 303d 64a5 b8bc
00000270: c694 90bc 6404 27ba 9076 243c 8662 333c
00000280: c300 a33b 4310 b3bc ca36 6e3d eb2a efbc
00000290: bb7c 04b9 ace5 34bd bc32 a4bc 2755 a1bc
000002a0: 283e 7d3d 6d38 25bd 6096 933c 85aa 793d
000002b0: 2732 23bc 3a0f 18bd be02 033c d185 28bd
000002c0: e2f4 90bb 02dc 6e3d c504 5a3c fb35 ef3c
000002d0: df09 813c a835 08bd 8003 5b3d d2d6 4abd
000002e0: 10f8 1cbd 9c24 253d 7a60 c9bc 5c25 79bc
000002f0: dd5f 033d 854e 30bd 6fc8 9abc 2f0e 5cbd
00000300: 8e83 50bd ff97 b03c 5b02 763d 6f1e 033d
00000310: 6c4a 08bd 5586 a5bc d6a9 9dbc 41b5 173c
00000320: d94e 1f3d 8010 08bc ea14 c63c 80b7 36bd
00000330: 7c11 c43c 7b05 c43c c06a 9e3c 0e34 cd3c
00000340: 1153 913b d2e0 02bd f468 673d 144f a63c
00000350: a1f0 1cbd 07b2 063c 0007 723d 7957 1ebd
00000360: 5f73 733d 2277 30bc 36b4 7f3c 89ff 203c
00000370: 72c5 363d e3c5 e8bc 01dc 443c bcc7 b23c
00000380: cf32 033d 5af6 4b3d a03b 8e3c 6d35 e7bc
00000390: 8aa7 0ebd a5fb 083d 8b30 2fbc 3f7b 7f3c
000003a0: aafd 613d ad77 2d3d 479e a5bb f115 543b
000003b0: 4088 e2bc d296 713d 9a44 2d3c 4c3e fcbc
000003c0: 44bb 28bd 3764 4b3c 2595 f6bb ce3b 1a3d
000003d0: 5b1d 36bc 1461 0d3c 6eca 603d ee5e 503d
000003e0: 228c 633d 740a 473c dff5 bcbc 9e77 733d
000003f0: 0c39 963c 21b3 20bd 4ee8 83bc a390 ecbc

bottleneck.0.bias f4 [64]
-0.02500016 0.06991186 -0.038805336 0.06607158 -0.011067438 0.06717872 0.04817891 -0.04808546
0.067467056 -0.034235504 -0.019508965 0.035352502 -0.043315656 0.028327195 0.01587137 0.0097213155
0.0009413323 -0.020221611 0.056368757 -0.0601258 -0.016042734 -0.031937286 -0.03854245 0.031391855
0.06680685 0.054968093 -0.035150085 0.075807005 -0.0034922247 -0.01670628 0.044629592 -0.030180693
0.014009462 0.06718735 -0.02207014 0.03721616 -0.029322878 -0.006380186 -0.0061199144 0.065485954
0.016214684 -0.03283109 -0.017792022 0.050601326 0.018014293 -0.028305722 0.011202344 0.007930654
0.061729014 0.006580739 0.007867411 0.058561333 0.061810683 0.053496566 -0.028208401 0.0399533
0.020440616 -0.032203157 -0.014753488 0.021209342 0.023972342 0.03266657 0.050035108 -0.0062968913
00000000: 23cd ccbc f32d 8f3d 58f2 1ebd 8950 873d
00000010: 3354 35bc ff94 893d 4057 453d 42f5 44bd
00000020: 2b2c 8a3d 873a 0cbd 44d1 9fbc c9cd 103d
00000030: c26b 31bd 6f0e e83c ad04 823c 2746 1f3c
00000040: bec3 763a cba7 a5bc ede2 663d 7946 76bd
00000050: 0d6c 83bc acd0 02bd b0de 1dbd bf94 003d
00000060: 08d2 883d 3926 613d 89f9 0fbd b440 9b3d
00000070: cfdd 64bb 9cdb 88bc 85cd 363d 803d f7bc
00000080: f187 653c 8599 893d 70cc b4bc f96f 183d
00000090: 8836 f0bc e110 d1bb 9089 c8bb 801d 863d
000000a0: a8d4 843c e579 06bd 93c0 91bc 5643 4f3d
000000b0: b692 933c 67e1 e7bc 098a 373c 93ef 013c
000000c0: 90d7 7c3d 3da3 d73b 50e6 003c 02de 6f3d
000000d0: 332d 7d3d 371f 5b3d 4e15 e7bc 12a6 233d
000000e0: 1473 a73c 75e7 03bd 9db8 71bc 37bf ad3c
000000f0: a561 c43c 62cd 053d 9df1 4c3d 2756 cebb

bottleneck.2.weight f4 [64, 64, 3, 3]
-0.028860956 -0.006965216 0.043104135 0.038026758 -0.006603754 -0.011002153 0.02057283 0.010364947
0.043721277 -0.01076658 -0.0080085145 0.048712697 0.015233509 -0.017973782 0.036813658 0.029425107
0.018814178 0.0033700122 -0.0023043898 0.016978504 -0.008552357 0.018753 -0.02158541 0.014550736
0.04891751 0.0020598606 -0.018799212 -0.012351352 0.026300518 -0.024221674 0.024612756 0.043560214
-0.022104643 -0.023856726 -0.023813432 0.040375452 -0.034114245 0.012574824 -0.032066442 0.037315127
0.022790961 -0.0028495146 -0.012226916 0.020496484 -0.03914888 0.038227104 0.042060636 -0.028590461
-0.0007754083 -0.0044220216 0.036921866 0.05029899 -0.0016424957 0.03141969 -0.0071738083 0.055211056
0.051464766 -0.022955041 -0.0036268511 0.037530832 -0.001824186 0.041576516 0.008611645 -0.026842078
-0.029669505 -0.038373854 -0.03364209 -0.009505644 0.03246871 0.030140784 -0.0015890747 0.029896174
0.02491359 -0.008552782 0.04071956 0.033011433 0.048624977 -0.0049886745 0.05067543 -0.014494279
0.0003855515 0.01314388 -0.012174411 -0.005747372 0.001131063 -0.015063811 -0.003920654 0.02213259
-0.017593605 0.024213849 0.013448097 -0.02715959 0.03303436 0.011686386 -0.02895353 -0.012243753
-0.03712194 0.03193549 -0.0015796418 -0.017426679 0.030677645 -0.009503885 -0.0124747325 0.0450536
0.0402908 -0.024778519 0.038102735 0.028054498 0.015529773 -0.0017135413 0.016426552 0.021757545
0.016572041 -0.037669566 -0.014227386 0.022810379 0.039314173 -0.027229087 -0.029536165 -0.019020488
0.023156684 0.049184237 0.020723566 -0.027243942 0.029828424 0.011929905 0.01741678 -0.016934143
0.04362858 -0.026889035 0.022807127 0.004028815 0.024032114 0.02985033 0.0038424884 0.011744327
0.038896553 0.0696562 0.019773414 0.031765133 0.06314269 -0.023890361 0.025497612 0.051422577
0.040032316 -0.005206076 0.0035581035 0.03423867 0.013035918 -0.022252249 0.011335808 0.004909735
-0.029609086 0.006628003 0.040781017 -0.024001384 -0.017895838 -0.033008873 -0.006862411 0.009844039
0.02314331 -0.008087948 0.037530288 0.05240217 0.037957825 0.031582363 0.03886746 -0.019239832
0.055463344 0.04790513 0.015190692 -0.006034363 0.0131121855 -0.012656597 0.005553309 0.028262764
0.006505598 -0.03362348 0.037127685 -0.015727594 0.0050617633 0.036379963 0.0020541884 0.0045854114
0.010351937 0.016073814 -0.007363799 0.03517795 0.0028040763 0.0082403 -0.018434241 -0.01488939
0.016079502 0.023106994 0.003668093 0.020628532 0.0151566155 -0.028539361 -0.05848166 -0.0027129734
0.010795964 0.0015104375 0.034024466 0.0058154888 -0.003351913 0.0068461834 -0.003835508 -0.009044597
0.053641666 -0.0025048384 0.01257057 0.049798425 0.009915641 -0.024092782 -0.009886388 -0.0089285625
0.039715882 -0.009329733 0.008584483 -0.01772062 -0.02104208 0.05109434 0.028514046 0.025780916
0.011844708 0.033770822 0.019875742 0.019179083 0.009479074 -0.017212544 0.03513309 0.04101748
-0.028679054 -0.023531891 0.0025052726 0.038813382 0.04435556 0.030690456 0.022278033 0.015150325
0.03742879 0.028271142 0.031581778 -0.015791649 0.015874106 0.010124076 -0.005943422 -0.0015799473
0.031694498 -0.021261897 -0.00082902284 0.04137591 -0.007438369 0.0023556384 -0.017721778 -0.023910826
00000000: d06d ecbc 773c e4bb f68d 303d f2c1 1b3d
00000010: 4e64 d8bb 6042 34bc 5a88 a83c bdd1 293c
00000020: 1515 333d 4f66 30bc 2536 03bc f786 473d
00000030: f895 793c c13d 93bc ebc9 163d ec0c f13c
00000040: 3120 9a3c 6cdb 5c3b 3f05 17bb 8116 8b3c
00000050: 2f1f 0cbc e49f 993c e3d3 b0bc 3666 6e3c
00000060: ba5d 483d bafe 063b ce00 9abc 535d 4abc
00000070: 2f74 d73c 886c c6bc b1a0 c93c 326c 323d
00000080: cc14 b5bc 2e6f c3bc 6314 c3bc bb60 253d
00000090: 61bb 0bbd a206 4e3c 1a58 03bd bfd7 183d
000000a0: 1cb4 ba3c ecbe 3abb 6753 48bc 3ee8 a73c
000000b0: 935a 20bd 0694 1c3d c647 2c3d 8b36 eabc
000000c0: c544 4bba 9be6 90bb 623b 173d 5006 4e3d
000000d0: 0349 d7ba efb1 003d 4412 ebbb fd24 623d
000000e0: b8cc 523d 360c bcbc 77b0 6dbb eeb9 193d
000000f0: 8619 efba 234c 2a3d db17 0d3c ebe3 dbbc
00000100: 760d f3bc e72d 1dbd 4acc 09bd 90bd 1bbc
00000110: e9fd 043d cee9 f63c 8048 d0ba d2e8 f43c
00000120: 9617 cc3c f820 0cbc 8ec9 263d ff36 073d
00000130: fc2a 473d 0978 a3bb 0a91 4f3d 6a79 6dbc
00000140: d923 ca39 6e59 573c 2e77 47bc 7354 bcbb
00000150: 2d40 943a 34ce 76bc d478 80bb 684f b53c
00000160: 7720 90bc 1f5c c63c 6855 5c3c ca7d debc
00000170: 094f 073d 4178 3f3c f42f edbc 069a 48bc
00000180: 2d0d 18bd cace 023d fc0b cfba 65c2 8ebc
00000190: af4f fb3c 2fb6 1bbc d262 4cbc 208a 383d
000001a0: f707 253d 52fc cabc 9d11 1c3d 8cd2 e53c
000001b0: 9770 7e3c e898 e0ba fa90 863c e13c b23c
000001c0: 17c2 873c 674b 1abd fb19 69bc d5dc ba3c
000001d0: e607 213d 890f dfbc d4f5 f1bc dbd0 9bbc
000001e0: 16b3 bd3c 6975 493d 78c4 a93c b02e dfbc
000001f0: bd5a f43c a675 433c a3ad 8e3c 79b9 8abc
00000200: e2b3 323d 6546 dcbc 03d6 ba3c 2604 843b
00000210: ffde c43c ae88 f43c 42d2 7b3b 476b 403c
00000220: fe51 1f3d e9a7 8e3d dbfb a13c 281c 023d
00000230: f450 813d b8b5 c3bc 5ee0 d03c 7ba0 523d
00000240: edf8 233d bb97 aabb 122f 693b d93d 0c3d
00000250: 9a94 553c 594a b6bc d3b9 393c d8e1 a03b
00000260: c18e f2bc b82f d93b ff09 273d 8d9e c4bc
00000270: 4b9a 92bc 5034 07bd 13de e0bb e448 213c
00000280: 0a97 bd3c 5083 04bc 5cb9 193d a8a3 563d
00000290: aa79 1b3d 825c 013d 7c33 1f3d da9c 9dbc
000002a0: 882d 633d 2b38 443d 61e2 783c e8bb c5bb
000002b0: 7ed4 563c 9e5d 4fbc 88f8 b53b 5087 e73c
000002c0: e92c d53b c6b8 09bd 3313 183d 28d7 80bc
000002d0: 26dd a53b 2803 153d 909f 063b 3841 963b
000002e0: 2c9b 293c 3bad 833c 064c f1bb c116 103d
000002f0: 98c4 373b 5302 073c 6803 97bc a1f2 73bc
00000300: 29b9 833c e14a bd3c 6364 703b 2bfd a83c
00000310: 7453 783c 61cb e9bc 778a 6fbd 24cc 31bb
00000320: 8ee1 303c dff9 c53a 3d5d 0b3d db8f be3b
00000330: c5ab 5bbb f355 e03b 255d 7bbb ca2f 14bc
00000340: 5db7 5b3d 3728 24bb cbf4 4d3c 6ff9 4b3d
00000350: 3675 223c 3a5e c5bc 84fa 21bc 1b49 12bc
00000360: 1fad 223d bddb 18bc eea5 0c3c d52a 91bc
00000370: 7160 acbc 4c48 513d 4a96 e93c 8032 d33c
00000380: 4e10 423c 4653 0a3d 74d2 a23c 741d 9d3c
00000390: 1e4e 1b3c 5201 8dbc b7e7 0f3d f201 283d
000003a0: 56f0 eabc f4c5 c0bc 802f 243b c8fa 1e3d
000003b0: 2dae 353d 8d6a fb3c 6c80 b63c 1239 783c
000003c0: ee4e 193d e298 e73c e55b 013d 7d5d 81bc
000003d0: 6a0a 823c 74df 253c 0ac1 c2bb 3c16 cfba
000003e0: 17d2 013d 6e2d aebc c852 59ba c979 293d
000003f0: 90bd f3bb 0e61 1a3b 432d 91bc a3e0 c3bc

bottleneck.2.bias f4 [64]
0.018722245 -0.032381464 0.0025683031 0.010526392 0.03635351 0.040382717 0.0234309 0.04609759
0.024769034 -0.04292827 0.05441172 -0.03770968 -0.04146083 0.04891775 -0.023971131 -0.0009202787
0.011856891 0.002763666 0.035418116 0.04600344 0.022954738 0.0007926971 0.018293254 0.04796017
-0.03406594 0.047921296 0.02102586 -0.035171792 0.019523107 0.034747183 0.04324173 -7.181997e-05
0.038841154 -0.019698178 -0.016305406 0.04388815 -0.027208144 -0.04034743 0.034049727 0.024912037
-0.01441306 0.012749342 0.04381557 0.057924993 -0.010053068 0.03869095 0.018568017 -0.040227197
0.05594333 -0.028297652 -0.012233221 0.028044721 0.004911079 -0.017203227 0.034055352 -0.03823618
0.045048937 -0.00041467114 0.023834206 0.013374271 0.037332956 0.0063707326 -0.028245296 -0.040240064
00000000: 655f 993c 6da2 04bd fa50 283b e376 2c3c
00000010: 6be7 143d 5968 253d 29f2 bf3c d4d0 3c3d
00000020: 6ee8 ca3c 8ed5 2fbd d3de 5e3d 7775 1abd
00000030: d5d2 29bd fb5d 483d 1b5f c4bc dc3e 71ba
00000040: 6843 423c 9f1e 353b 9612 113d 1a6e 3c3d
00000050: 930b bc3c 00cd 4f3a bcdb 953c e271 443d
00000060: ba88 0bbd 1f49 443d 6d3e ac3c 4c10 10bd
00000070: ecee 9f3c 1053 0e3d 3e1e 313d 0e9e 96b8
00000080: e717 1f3d 135e a1bc ea92 85bc 10c4 333d
00000090: 9de3 debc 5943 25bd ba77 0b3d 5414 cc3c
000000a0: c124 6cbc 9ee2 503c f577 333d c242 6d3d
000000b0: a0b5 24bc 677a 1e3d f41b 983c 46c5 24bd
000000c0: d524 653d 7ad0 e7bc d96d 48bc 0bbe e53c
000000d0: 1eed a03b c8ed 8cbc a07d 0b3d 8a9d 1cbd
000000e0: 3c85 383d 3868 d9b9 f43f c33c c21f 5b3c
000000f0: 71ea 183d 94c1 d03b ae62 e7bc c4d2 24bd

upconv2.weight f4 [64, 32, 2, 2]
-0.028440472 0.018237567 -0.016111096 -0.015272987 -0.049165323 -0.035030276 -0.0041430625 -0.0020045782
-0.03589857 -0.07644392 0.008771314 -0.072589725 0.08479904 -0.04501161 0.08009902 -0.06305381
-0.010398627 -0.05996664 -0.07221727 -0.010762746 -0.052263483 -0.07058111 -0.07748877 -0.016835285
-0.056870822 -0.064923935 -0.08449246 0.057735827 -0.070251204 0.012815979 0.043074287 0.01419949
-0.04364206 -0.05606187 -0.02020678 0.029155808 -0.055687997 -0.08280117 -0.057492737 -0.036283128
0.013977931 -0.038148776 0.0037283835 0.071383715 0.058413073 -0.090863764 0.07761167 0.07549622
0.011795027 0.039592624 0.0026499843 0.053248484 0.018241292 -0.06874128 -0.002553667 0.05559962
0.011937669 -0.018729499 0.073572 0.013768228 -0.080901176 -0.03933792 -0.04606775 0.071151644
0.06326676 -0.018195376 0.061819047 0.007621986 0.016106835 -0.06611129 -0.01162682 -0.023922727
0.07667798 0.059897933 0.0763281 -0.035658654 -0.013533217 0.06358574 0.04552941 -0.071403645
0.078858204 -0.055446576 0.020231001 -0.06387636 -0.060388908 -0.024265353 0.07206895 0.08067494
0.079682894 -0.09296717 -0.004278915 0.062403224 -0.046299383 0.002332785 -0.0003488247 0.0255568
0.029879551 -0.09564704 0.010206359 -0.09099465 -0.065494284 0.06069932 -0.08289346 -0.039067987
0.033830944 0.010136042 -0.047287274 -0.020723859 -0.07217155 0.07224034 -0.055699296 -0.0060999705
0.07997484 0.07825114 0.039262906 -0.0019305415 -0.09503016 -0.03298171 0.06598858 0.057293255
-0.06251388 -0.0933649 -0.09053131 -0.041754715 0.049124222 0.058857124 0.07222748 0.07842243
-0.0069975634 -0.009073592 -0.04715381 -0.026277265 0.028912634 0.04760161 -0.052156854 0.0026289613
0.055694647 0.03360573 0.074297585 0.011510324 -0.0009357818 -0.06873484 -0.060179345 0.052297615
0.017977186 -0.061039474 -0.0852453 0.021471996 0.05670639 0.009898978 0.0606693 -0.05084832
0.03963205 -0.030582702 -0.010711256 -0.0057387096 0.038004726 -0.053890575 -0.050116066 0.083777815
-0.023847787 0.0010395086 -0.03666531 -0.029326614 0.04351217 0.012134794 -0.028945899 -0.017269308
-0.04129653 -0.036341865 -0.0399788 -0.017219257 -0.04472719 0.07533975 0.055394012 -2.25335e-05
0.05356431 0.055788536 0.025106909 -0.0030729822 0.045972127 0.057545792 -0.066863246 0.087931454
0.040383033 -0.030864025 -0.068552785 0.05481875 -0.07817268 0.0840587 -0.025472973 0.018279588
-0.027816625 0.007104605 0.030075878 -0.0389589 0.046976537 -0.025794424 -0.028746126 0.010398186
-0.03295262 -0.013849863 0.018608147 0.08344043 -0.07972063 -0.018501347 0.06729088 -0.039753936
0.0188837 0.060550082 -0.057846583 -0.016296197 0.0326382 -0.036810745 -0.040440764 -0.07478352
-0.08217281 -0.00451586 0.0021180678 0.063658215 -0.070152216 -0.022428747 -0.02730405 0.08722656
-0.04750516 0.06876649 -0.05206861 0.064448565 -0.062937126 0.07514828 0.026965396 -0.016019791
-0.082888134 0.05990511 -0.005110131 -0.078870825 0.0069624134 -0.017316466 -0.030774962 0.08062381
0.086226694 -0.039357137 -0.082392626 -0.03606279 0.02847547 0.055549808 -0.019051736 -0.027062042
0.074064374 -0.042911477 0.068259 0.08035245 0.075681865 0.08174439 -0.029670728 -0.068610825
00000000: fefb e8bc f366 953c 6bfb 83bc 8d3b 7abc
00000010: 9461 49bd e87b 0fbd 87c2 87bb 3e5f 03bb
00000020: 610a 13bd a18e 9cbd 8fb5 0f3c eca9 94bd
00000030: 1eab ad3d 185e 38bd f40a a43d 5b22 81bd
00000040: 015f 2abc 949f 75bd a6e6 93bd 3b56 30bc
00000050: 3c12 56bd d48c 90bd 6fb2 9ebd 27ea 89bc
00000060: 61f1 68bd d7f6 84bd 620a adbd 677c 6c3d
00000070: dddf 8fbd 1dfa 513c aa6e 303d faa4 683c
00000080: 04c2 32bd 22a1 65bd b088 a5bc 29d8 ee3c
00000090: 1919 64bd a993 a9bd 817d 6bbd 9e9d 14bd
000000a0: b103 653c e441 1cbd e557 743b a031 923d
000000b0: 8c42 6f3d c816 babd def2 9e3d c39d 9a3d
000000c0: ee3f 413c e02b 223d 5cab 2d3b 151b 5a3d
000000d0: c36e 953c 3ac8 8cbd 6c5b 27bb 6dbc 633d
000000e0: 3696 433c 9b6e 99bc ebac 963d 2294 613c
000000f0: 84af a5bd cc20 21bd 89b1 3cbd f4b7 913d
00000100: 0192 813d 780e 95bc f835 7d3d dac1 f93b
00000110: 7bf2 833c 5b65 87bd 6b7e 3ebc 98f9 c3bc
00000120: 5809 9d3d 8957 753d e851 9c3d cf0e 12bd
00000130: 6dba 5dbc 3e39 823d 0c7d 3a3d 133c 92bd
00000140: 6980 a13d f31b 63bd 7cbb a53c 9cd1 82bd
00000150: 5c5a 77bd 22c8 c6bc e398 933d e738 a53d
00000160: c930 a33d 9265 bebd 2436 8cbb 869a 7f3d
00000170: 6ca4 3dbd a3e1 183b 75e2 b6b9 7f5c d13c
00000180: f6c5 f43c 98e2 c3bd 9338 273c 675b babd
00000190: de21 86bd da9f 783d 0cc4 a9bd c105 20bd
000001a0: 5192 0a3d a411 263c 4db0 41bd 15c5 a9bc
000001b0: adce 93bd bef2 933d f224 64bd 43e2 c7bb
000001c0: d9c9 a33d 2242 a03d 24d2 203d 390a fdba
000001d0: 2c9f c2bd d417 07bd 0525 873d 55ac 6a3d
000001e0: 4707 80bd 1936 bfbd 7b68 b9bd fe06 2bbd
000001f0: 7b36 493d 2b14 713d 00ec 933d f09b a03d
00000200: d14b e5bb 67a9 14bc 5a24 41bd 6b43 d7bc
00000210: 30da ec3c e8f9 423d 6da2 55bd a74a 2c3b
00000220: 1220 643d 29a6 093d 5529 983d cc95 3c3c
00000230: 414f 75ba dac4 8cbd 9e7e 76bd 0636 563d
00000240: e444 933c 8704 7abd 1695 aebd 0ae6 af3c
00000250: f644 683d 532f 223c 5f80 783d 5446 50bd
00000260: 3755 223d 9388 fabc 447e 2fbc c90b bcbb
00000270: d8aa 1b3d 5dbc 5cbd 8146 4dbd b493 ab3d
00000280: 6f5c c3bc 1f40 883a 5d2e 16bd 5e3e f0bc
00000290: d139 323d 04d1 463c f31f edbc 5d78 8dbc
000002a0: 8d26 29bd 35db 14bd cfc0 23bd 660f 8dbc
000002b0: dc33 37bd ba4b 9a3d d5e4 623d 5306 bdb7
000002c0: 4066 5b3d 8582 643d 01ad cd3c 1664 49bb
000002d0: 454d 3c3d 23b5 6b3d 99ef 88bd 6815 b43d
000002e0: ae68 253d 8dd6 fcbc 6765 8cbd a089 603d
000002f0: 0019 a0bd f826 ac3d b2ac d0bc 13bf 953c
00000300: b1df e3bc bfcd e83b b061 f63c 5e93 1fbd
00000310: 786a 403d d44e d3bc ff7c ebbc 275d 2a3c
00000320: 54f9 06bd 89ea 62bc 1d70 983c d1e2 aa3d
00000330: 9244 a3bd 2390 97bc cdcf 893d 06d5 22bd
00000340: fdb1 9a3c 5d03 783d 8af0 6cbd 9a7f 85bc
00000350: a2af 053d ddc6 16bd 37a5 25bd 1a28 99bd
00000360: 384a a8bd c8f9 93bb 48cf 0a3b 3d5f 823d
00000370: f7ab 8fbd 7ebc b7bc beac dfbc d7a3 b23d
00000380: c594 42bd 72d5 8c3d e545 55bd 9cfd 833d
00000390: 2ee5 80bd 57e7 993d 89e6 dc3c f03b 83bc
000003a0: 41c1 a9bd 105f 753d e372 a7bb 0787 a1bd
000003b0: f524 e43b 43db 8dbc c61b fcbc 191e a53d
000003c0: 9f97 b03d f334 21bd 77bd a8bd 93b6 13bd
000003d0: 6445 e93c 3288 633d 6312 9cbc 37b1 ddbc
000003e0: 10af 973d f2c3 2fbd 60cb 8b3d d38f a43d
000003f0: 18ff 9a3d 9a69 a73d 0710 f3bc d583 8cbd
